CartPole/saved_MODELS/best_model_policy_gradient.pth (torch, 2335 bytes, 4 tensors)

0.weight f4 [32, 4]
00000000: ce93 c2bd 0f01 3d3e 9b0c fcbe ae90 5fbf
00000010: a6de f73e a29f 80be 1056 043a 582d adbe
00000020: acab 91bd 87af b4be ecba 79bf 4c46 d8be
00000030: b4ed 01bf 9ad1 24be 9425 23bf 13ab 37bf
00000040: bf39 66be 66ba 98be 5c0b 633e eca6 393f
00000050: c0ea c63d 3598 1e3d 022c 1c3d 92a4 0d3e
00000060: df28 43be 11ed 403f 549e 463f 5b79 013f
00000070: 1700 a13e 505a 593e a0b0 033f d467 623e
00000080: e3f3 6d3c 54dd 903d d70c 873f 55d4 623f
00000090: 2c17 f73e 72e5 b23e 4469 3cbf 0482 61bf
000000a0: 9d06 5a3e 421e a93e 3a39 353e 1220 303e
000000b0: f6b2 18be e25b 80be 26a6 733f 8a29 3e3f
000000c0: 3155 24bf c5e2 1bbf ccb9 9abf 05f8 3abf
000000d0: ae45 ce3e c73c 0e3f 6df4 d63e 3e21 693f
000000e0: 3aa8 ee3e d418 5c3d 2650 2d3f dd17 8c3e
000000f0: d664 42be 9a30 a93e 3b1b 40bf f317 27bf
00000100: 4388 1d3d 5370 e2bc 3b6d 2abf 0208 47bf
00000110: ac38 45be 6e4f 8e3e 20cc 88be 3912 98be
00000120: 5a0e fcbb 391b 7a3e 2890 373f 7f13 503f
00000130: 5b5f 13be 69e3 bfbc bfcf 7abf b6ec 70bf
00000140: ad98 96be 90f0 babe 42e9 1f3e 7ed8 193f
00000150: 470a aa3e b83c fabe 9fff 63bf 3a5e 4abf
00000160: 80b1 08be 3f9f f73e 03a0 6cbf a0d6 f3be
00000170: ab98 7c3e f4a1 3b3e 5ea6 763f eefb 633f
00000180: 9149 f6bd 2d0a c2bb 639b dbbb f169 653e
00000190: 1d52 a73c 3c1b 7bbe b906 a93e 484c 0d3f
000001a0: 41c2 71be 54c5 af3e a027 653f 47e2 283f
000001b0: bea0 fabe efc8 703e 3a66 5fbf 8b6c 19bf
000001c0: c281 d9be f99f 033e 83cb 083f ba14 e43e
000001d0: 35de 683c a5a9 8b3e 1f61 fa3e 5551 243e
000001e0: 2dbd 4f3d a698 a23c 58c5 083c 7fee c53d
000001f0: 05b4 a33e 018e 9c3e 8d50 063f adcb 093f
-0.09500848 0.18457435 -0.49228367 -0.8733014 0.48412055 -0.2512179 0.00050482247 -0.33823657
-0.07112822 -0.35290167 -0.97550845 -0.42241132 -0.5075333 -0.16095582 -0.63729215 -0.71745414
-0.22482966 -0.2982971 0.22172302 0.7252033 0.09712744 0.038719375 0.038127907 0.1383231
-0.1905856 0.75361735 0.7758534 0.505758 0.3144538 0.21225858 0.51441383 0.2210992
0.014523479 0.07073465 1.0550793 0.8860524 0.48259866 0.34940678 -0.7359812 -0.88089013
0.21291585 0.33030897 0.17697611 0.17199734 -0.14912018 -0.250701 0.951754 0.74282134
-0.6419249 -0.608929 -1.2087951 -0.730347 0.40287536 0.5556149 0.41983357 0.9106635
0.46612722 0.053734615 0.6770042 0.27361956 -0.18983778 0.33044893 -0.7504155 -0.6527092
0.038460027 -0.027641451 -0.6657292 -0.77746594 -0.192599 0.27794975 -0.26718235 -0.29701403
-0.0076921405 0.24424447 0.7170434 0.8127975 -0.14391844 -0.023423867 -0.97973245 -0.9411119
-0.29413357 -0.3651166 0.15616325 0.60095966 0.33210966 -0.4887445 -0.8906192 -0.7905003
-0.13348961 0.48363683 -0.9243166 -0.47624683 0.24667613 0.18323499 0.96347606 0.8905629
-0.120257504 -0.005921623 -0.006701873 0.22403695 0.020424897 -0.24522108 0.3301294 0.5519452
-0.23609258 0.34330237 0.8951359 0.6597027 -0.48950762 0.2351415 -0.8726536 -0.5993125
-0.4248181 0.12853993 0.53435534 0.44547063 0.014213135 0.27277866 0.48902223 0.1604665
0.05071752 0.01984818 0.008347832 0.0966463 0.31973282 0.3057709 0.5246666 0.5382641

0.bias f4 [32]
00000000: 4bdd 113e 474b ccbe ddbe 9f3e 195b f53e
00000010: 4671 d33e ad91 f2be acde aa3e cccd de3e
00000020: eb79 483e 1a5a 75be 55d8 e33e 46f2 9c3e
00000030: 808a 03be e40c a93e cbf6 d03d 95ca adbd
00000040: d60c e73e 5673 ffbd aba5 863e bc27 f63e
00000050: 72bf 8dbd 4e84 d53e 494e 2fbe 6c1b 6b3e
00000060: 249d 23bf dea8 a6be 8284 823e 8fab 2c3d
00000070: 6cbe 0fbe 78d4 7d3e ccf4 e2be c3ec 753e
0.14244573 -0.39901182 0.31200305 0.47921064 0.41297358 -0.47376767 0.3337301 0.43516386
0.19577758 -0.23960152 0.44500986 0.3065359 -0.12845802 0.33017647 0.10203322 -0.08485905
0.4512698 -0.124731705 0.2629827 0.4807719 -0.06921281 0.41702503 -0.17119707 0.2295968
-0.6391165 -0.3255071 0.2549172 0.0421558 -0.14037484 0.24788082 -0.4432739 0.24016099

2.weight f4 [2, 32]
00000000: 8899 d63e 83a2 ed3c cc4c 0e3e c5c7 0b3e
00000010: f48e 05be 3c85 ce3d d18d 9dbe 6599 d6bd
00000020: 3078 d6be 1f09 9b3e 6cf7 edbc 5053 90be
00000030: ba11 ce3e 9214 c1be 9226 85be 27e2 713e
00000040: 1ac7 bc3e 525f 3b3e 3760 fdbe 9ec1 8a3e
00000050: 4cb3 1fbe 8e7e dd3e 5a9e 2a3e 1c69 2fbf
00000060: 3e4e e13c a505 02be 0933 04bf bb9c d83e
00000070: 37a6 2abe 5e0f f6bd aa98 65bd eb27 b8be
00000080: 7ad5 3cbe f227 38be b246 88be 2a03 b2be
00000090: fc98 403e 9ac4 4e3d a1f2 8d3e bea1 253e
000000a0: b59d 3b3f 6639 e6be 2705 9a3d 73bc 713e
000000b0: aed5 b0be fe4c 0a3f 8c38 213c 571b e1be
000000c0: 0633 afbe 37fd 19bc de2b 063f 1f71 dbbe
000000d0: 0624 4b3e 8f20 01bf 0ac1 84be c28e 033f
000000e0: 0f8c c1bd 32ba bf3d 4fef b63e 786a b1be
000000f0: 4e68 3b3d 8005 653c 1569 23be bbfd 533e
0.4191401 0.029008156 0.13896483 0.13650425 -0.13042814 0.10084006 -0.3077226 -0.104784764
-0.4188857 0.30280396 -0.029048644 -0.28188562 0.402479 -0.37711006 -0.2600599 0.23621427
0.36870652 0.1829808 -0.4948747 0.27100843 -0.1559574 0.43260616 0.16661969 -0.6851976
0.02750313 -0.12697466 -0.51640373 0.42307076 -0.16664968 -0.1201465 -0.056053795 -0.35967955
-0.1844081 -0.17983988 -0.26616436 -0.3476804 0.18808359 0.050480463 0.27724174 0.16174981
0.73287517 -0.44965667 0.07520514 0.23607044 -0.34538025 0.5402373 0.009840142 -0.4396617
-0.34218615 -0.00939875 0.52410686 -0.42859742 0.1983796 -0.50440305 -0.25928527 0.51389706
-0.09450542 0.09361686 0.35729453 -0.34651542 0.04575377 0.013978362 -0.15958054 0.20702259

2.bias f4 [2]
00000000: 4b7d 46bd 860e efbd
-0.048459332 -0.11672692
