CartPole/saved_MODELS/best_model_policy_gradient_center.pth (torch, 2335 bytes, 4 tensors)

0.weight f4 [32, 4]
00000000: c227 b8bd c1b3 d83e 61ad 4cbe d1c6 08bf
00000010: 1371 1fbe 7158 9d3e 356a 823e a182 ae3e
00000020: 8d62 1dbf e232 7fbe 5bda ef3d fdff 0e3e
00000030: dafc 2abd e04e 53be 1e90 04bf 2aa9 0abf
00000040: a233 9fbe e290 bdbe b68c 2d3d 498c c0bc
00000050: bbe0 893e ae4a 953e 756e 6cbf a026 a7be
00000060: 6948 edbe 454c 8f3d 9416 493e e591 9abe
00000070: d136 103f de67 0cbe cc8a 14be 67a4 ad3e
00000080: b76c 04bf d483 dabd bedc 0ebf c31c 12bf
00000090: c01e 843e cef4 bf3e 9c8c 62bf 8842 56bf
000000a0: 8a1a aa3c 3c30 163e 7a2b de3e 583c dc3d
000000b0: 1381 4fbe 1478 23be 3657 10be 66a0 4abf
000000c0: ea3d 8f3d ee9d 88bd 5b34 f6be 40f7 01bf
000000d0: da90 bcbe 53cc f93d d48f 573d c601 15bf
000000e0: 4398 a93e 7013 3fbe 79f8 3dbd bc0a b0be
000000f0: b335 913e e2b8 153f 160e 163f 96b9 c13e
00000100: 02e7 cfbe d137 08bf e9dc ea3d 27a8 1f3f
00000110: f36e 53be 298d bdbe c378 1a3f 52e2 303f
00000120: 8651 aa3e 7ec3 e8be b7e2 56be 5920 2abf
00000130: 825f 2abf 3404 623e 707b aebd d18a 11be
00000140: 5e73 ddbe 2cf6 8dbd ad14 063f 8478 ac3e
00000150: 8ce6 bd3e ec15 9d3d afe3 51bf 60af 6bbe
00000160: 559f 56be c4c1 153e 0260 06bf 2fcd 05be
00000170: cd4b 01bf fd9d 9dbe 9692 ac3d bb40 cbbe
00000180: 611d 72bd b031 a7be 161d 233e b265 643e
00000190: 2369 35be ce28 babe 1e53 b23e 6eb1 3dbe
000001a0: 776b bd3e 12b2 613e da9d 743e 1166 f13e
000001b0: cdcd 213d 1339 783d a16d df3e 4972 073f
000001c0: 8591 113e 81ea 1bbe 6890 97be d379 68bf
000001d0: 3ea2 9ebe 7c1d 593e c05d 87bc 7ac9 223e
000001e0: c19d 8e3e 5a6f 42bd b926 463f 95b3 373f
000001f0: 94aa 5bbe bbe1 023f 0ddb 743f 830c 433f
-0.08991958 0.4232464 -0.19988014 -0.5342837 -0.15570478 0.30731538 0.25471655 0.34084037
-0.614785 -0.24921754 0.1171157 0.1396484 -0.041745044 -0.20635557 -0.51782405 -0.54164374
-0.3109408 -0.370246 0.04237052 -0.023504393 0.26929268 0.2915854 -0.92356044 -0.32646656
-0.46344307 0.06996969 0.19637519 -0.30189434 0.56333643 -0.13711497 -0.14506072 0.33914492
-0.51728386 -0.106696755 -0.55805576 -0.57075137 0.2580471 0.3749146 -0.884958 -0.8369527
0.020764608 0.14666837 0.43392545 0.10753697 -0.20264082 -0.15963775 -0.14095768 -0.79151
0.06994231 -0.06670748 -0.4808682 -0.507679 -0.36829263 0.12197175 0.0526274 -0.5820583
0.3312398 -0.18659759 -0.04637954 -0.3438319 0.28361282 0.58485234 0.58615243 0.37836903
-0.40605932 -0.5321017 0.114679165 0.62365955 -0.20647793 -0.3702176 0.6034052 0.6909534
0.33265322 -0.4546165 -0.20984922 -0.6645561 -0.66551983 0.22071916 -0.085196376 -0.1421311
-0.4325208 -0.06931719 0.523753 0.33685696 0.37089956 0.07670197 -0.8198804 -0.23016119
-0.20959218 0.14624697 -0.52490246 -0.13066553 -0.5050629 -0.30784598 0.084263965 -0.39697823
-0.05911005 -0.32655096 0.15929064 0.22304419 -0.17715888 -0.36359257 0.34829038 -0.18524715
0.36996052 0.22040585 0.2388834 0.47148183 0.039502908 0.060601305 0.43638328 0.5290876
0.14215668 -0.15226175 -0.2960236 -0.9081089 -0.30983156 0.21202654 -0.016524196 0.1589717
0.27854732 -0.047469474 0.77402836 0.71758395 -0.21451789 0.5112569 0.95646745 0.76190966

0.bias f4 [32]
00000000: 690a bd3e b885 bcbe 108a fb3e 648d 913e
00000010: f472 cb3e 4eee 4d3d fcfa 003f ca59 803d
00000020: d628 0f3e a0d9 e83e 0c15 223d c528 c33e
00000030: bb98 ae3e f23d a23d b328 10bf b852 793e
00000040: e79a 52be dae9 0fbe 8014 9b3e a7c4 d63e
00000050: c931 703e 5532 b03e 276f 1bbe b5ae 993e
00000060: a180 04bf c0da aebd 854a 683e 5831 b03e
00000070: 9819 c13e bf16 37be abaa 0e3f f63b 9d3e
0.36922005 -0.3682077 0.4912877 0.28428185 0.3973614 0.050276093 0.5038297 0.06267126
0.13980421 0.45478535 0.039570853 0.38117042 0.341009 0.079219714 -0.563121 0.24347961
-0.20566903 -0.14054051 0.30289078 0.4194691 0.23456492 0.344134 -0.1517912 0.30016103
-0.5175877 -0.08537817 0.22684677 0.34412646 0.3771484 -0.1787977 0.5572917 0.3070981

2.weight f4 [2, 32]
00000000: 2d34 7e3e 82aa a3bd 9cd7 05be b058 be3e
00000010: 844d 0e3d 05aa 9b3e a4ab 09bd a918 5cbe
00000020: d8de c23e fd12 9d3e 43ac 31be 8472 d03e
00000030: 33d3 a73e 94df 9b3d 7c5a 29bd bc9b 69be
00000040: bd34 9fbe 5db3 9ebe 4700 dc3e 547b 6a3d
00000050: 916e b6be dc5e 353e 7cbc 113d e7b7 de3d
00000060: 398d 81bd f7ad 593e d73c b4be 1f85 3bbe
00000070: 2879 d83e 9a80 1ebe a844 87be ea17 91be
00000080: 809d 80be f458 35bd 24df cf3d 1962 b1be
00000090: 6628 61bd 1939 85bd 3766 f1bd 1996 6bbc
000000a0: 71b5 d7be cc78 8abe 3e73 683d c5b0 8bbe
000000b0: 1309 b1be b18e 9ebe 1f8f c73d 4053 563e
000000c0: 88fb 3b3e 74de 1a3e 7d32 f5be 9006 6cbd
000000d0: ae55 5d3e 48a1 25be e372 e13d 99ab 96be
000000e0: 4505 b7bc e77b 8dbd af78 e83e f8fd a73e
000000f0: 97a4 23be 2465 d0bd ad14 9d3e e4e8 e73e
0.24824591 -0.07991506 -0.1307053 0.37177038 0.034741893 0.30403152 -0.033610955 -0.21493782
0.3806064 0.3067855 -0.17350869 0.40712368 0.3277832 0.076110035 -0.04134606 -0.22813314
-0.31094924 -0.30996218 0.42968962 0.05724652 -0.3563123 0.17711967 0.035580143 0.1087492
-0.06325764 0.21257769 -0.35202667 -0.183125 0.42279935 -0.15478745 -0.26419568 -0.28338557
-0.25120163 -0.044274285 0.101499826 -0.34645155 -0.054970168 -0.06505031 -0.11787074 -0.014379048
-0.42130616 -0.27045286 0.05675053 -0.27283302 -0.34577236 -0.3096824 0.09744095 0.20930195
0.1835767 0.15123922 -0.47890082 -0.057623446 0.21614715 -0.16174805 0.11008241 -0.29427794
-0.02234138 -0.06908398 0.45404574 0.3281095 -0.15980755 -0.10175541 0.30679837 0.4529487

2.bias f4 [2]
00000000: c054 903c 6a04 8b3e
0.017618537 0.27151805
