CartPole/saved_MODELS/best_model.pth (torch, 2335 bytes, 4 tensors)

0.weight f4 [32, 4]
0	0x3e53504a	0.20636097
1	0x3df48360	0.1193912
2	0x3f9bac2b	1.2161916
3	0x3fb6a4bc	1.4269023
4	0xbb1bd155	-0.0023775895
5	0xbe89e0eb	-0.2692941
6	0xbfcbbca2	-1.5916941
7	0xbfb9cedb	-1.4516252
8	0x3eaca88d	0.33722344
9	0x3e838da9	0.25694016
10	0x3fb8403b	1.4394602
11	0x3f984947	1.1897362
12	0x3e4ec209	0.20191206
13	0xbecf160d	-0.4044651
14	0xbfe23bb8	-1.7674475
15	0xbfa95bdb	-1.3231157
16	0xbd3408e2	-0.043953784
17	0xbe0c99ef	-0.13730596
18	0xbd5c12c4	-0.053728834
19	0x3e6cf4b7	0.23140226
20	0xbe086dba	-0.13323107
21	0x3d5184b4	0.051151946
22	0x3ee194ce	0.4405884
23	0xbe724867	-0.23660432
24	0xbdc5b0df	-0.09652876
25	0xbdae3f56	-0.08508174
26	0xbf9b828e	-1.2149217
27	0xbfa9517e	-1.3227994
28	0x3e83f07e	0.25769418
29	0x3eb64dd0	0.3560624
30	0x3f9dab46	1.2317894
31	0x3f890885	1.0705725
32	0xbef7e7de	-0.48419088
33	0xbeb09538	-0.34488845
34	0xbe85d4b7	-0.2613885
35	0xbf0ff8c5	-0.5623897
36	0x3e1615c3	0.14656739
37	0x3df0f2ee	0.11765085
38	0x3fac16f7	1.3444508
39	0x3f5053a6	0.8137764
40	0xbe188a90	-0.14896607
41	0x3ecbf7f2	0.39837605
42	0x3ff797f0	1.9343243
43	0x3fd591bc	1.66851
44	0xbe11d584	-0.14241606
45	0xbe9796a5	-0.2960712
46	0x3dbe53dc	0.09293339
47	0xbef15254	-0.47133124
48	0x3c0c2c4c	0.008555483
49	0x3e6f595a	0.23373929
50	0x3fdbd3fb	1.7174066
51	0x3eed6496	0.46365803
52	0xbe55b35c	-0.20869201
53	0x3e93c78e	0.28863186
54	0xbec1088e	-0.3770184
55	0x3e0bbbe0	0.13645887
56	0xbd2e5e87	-0.042570617
57	0x3e8840ba	0.26611882
58	0x3fa8a861	1.3176385
59	0x3f8acca9	1.0843707
60	0x3e7b698a	0.24551979
61	0xbda78d5f	-0.08181261
62	0xbfc9ef6d	-1.5776192
63	0xbf8f2f2f	-1.1186274
64	0x3e87fcf7	0.26560184
65	0xbe0afcee	-0.13573048
66	0xbfe960e8	-1.8232698
67	0xbf8b2d79	-1.0873252
68	0xbeb9c932	-0.36286312
69	0x3ed73f5e	0.42040533
70	0x3fba2da1	1.4545175
71	0x3f90279d	1.1262089
72	0xbd1a0281	-0.037600044
73	0xbe0c2d72	-0.13689211
74	0xbf81a994	-1.0129876
75	0xbfa07079	-1.2534324
76	0xbd09d799	-0.033652876
77	0xbe5874df	-0.21138333
78	0xbfb85c73	-1.4403213
79	0xbfce736e	-1.6128976
80	0x3bd922a6	0.006626445
81	0xbd4c2498	-0.049839586
82	0x3f0479aa	0.51748145
83	0x3eda674b	0.4265693
84	0xbeeef195	-0.46668687
85	0xbdeefd58	-0.11669415
86	0x3f584cb7	0.8449206
87	0x3f9dae19	1.2318755
88	0x3d9f7720	0.07786393
89	0x3e36e413	0.17860441
90	0x3feea6c5	1.8644644
91	0x3f8ede85	1.1161658
92	0x3ee0eeff	0.4393234
93	0x3f1258cb	0.5716674
94	0x3fd359e7	1.6511811
95	0x3fb34116	1.4004238
96	0x3edefbb0	0.43551397
97	0xbe864f73	-0.2623249
98	0x3e846781	0.25860217
99	0x3ec17e9d	0.3779191
100	0xbd9e54d8	-0.077310264
101	0xbdb9e335	-0.090765394
102	0xbfbe36d9	-1.4860488
103	0xbf82c7d0	-1.0217228
104	0x3dbbdd44	0.091730624
105	0xbe58a55e	-0.21156833
106	0xbe3c6a8f	-0.18400024
107	0x3d5ab06b	0.0533909
108	0x3cc4e527	0.02403505
109	0x3d848fd4	0.064727455
110	0x3e7c51f0	0.24640632
111	0x3e2e0757	0.16994987
112	0xbdffb60a	-0.12485893
113	0x3ea9c270	0.33156157
114	0x3fe2a2f5	1.770598
115	0x3fbe9e0f	1.4891986
116	0x3aa5e516	0.0012656774
117	0xbdc74dc4	-0.097316295
118	0xbfe34db8	-1.7758093
119	0xbfb816ee	-1.4381998
120	0xbdb5e6aa	-0.08881886
121	0x3d90e152	0.070742264
122	0x3e989603	0.2980195
123	0x3dd5956d	0.10428891
124	0x3e93d09e	0.288701
125	0xbefb00a7	-0.49023935
126	0x3ebadddf	0.364974
127	0x3f05fdc3	0.52340335

0.bias f4 [32]
0	0x3dc0ed12	0.094202176
1	0x3efed75f	0.4977369
2	0x3ddfd6be	0.10929631
3	0x3ee6f83f	0.45111272
4	0xbebd3008	-0.36950707
5	0xbe95f421	-0.29287818
6	0x3eca0b89	0.39461926
7	0xbd05e2a3	-0.03268684
8	0xbe9448f5	-0.28961912
9	0xbd2224e7	-0.039585974
10	0x3e846f52	0.2586618
11	0xbe93bb12	-0.2885366
12	0xba873e4d	-0.001031825
13	0xbf033717	-0.51255935
14	0x3e56851c	0.20949215
15	0x3eba15f4	0.36344874
16	0x3eaae3f9	0.33377054
17	0xbd2ecfa1	-0.04267848
18	0x3e8a133e	0.26967806
19	0x3f025df2	0.509246
20	0xbeb259d4	-0.34834158
21	0x3e389296	0.18024668
22	0x3d314b74	0.04328485
23	0x3e5d55a5	0.21614702
24	0xbeda2504	-0.42606366
25	0x3e86a17c	0.26295078
26	0xbeb92cc2	-0.3616696
27	0xbef5f487	-0.48038122
28	0x3e824e95	0.25450578
29	0x3ed407f4	0.41412318
30	0xbefcb766	-0.49358672
31	0xbe8781c3	-0.26466188

2.weight f4 [2, 32]
0	0xbf27552b	-0.6536433
1	0x3f586186	0.8452381
2	0xbec7a3ef	-0.3899226
3	0x3f4c4c87	0.7980427
4	0x3ce1498b	0.027500888
5	0x3d60de48	0.054899484
6	0x3f3e484f	0.74329084
7	0xbe49263b	-0.1964349
8	0x3d8f1c12	0.06987776
9	0xbdc729a6	-0.09724741
10	0xbf42e70e	-0.7613381
11	0x3e82bbdc	0.2553395
12	0xbe3350ab	-0.17511241
13	0x3e819e59	0.25316122
14	0xbecfe843	-0.4060689
15	0x3ebe4b87	0.37166998
16	0x3ef9d15b	0.48792538
17	0xbf58eb7e	-0.8473433
18	0x3eab480d	0.33453408
19	0x3f55eee5	0.8356765
20	0xbd84daa9	-0.064870186
21	0xbe7a7416	-0.24458346
22	0xbf21376d	-0.629752
23	0xbedaa00c	-0.4270023
24	0xbe0b47df	-0.13601635
25	0x3eb6753b	0.35636315
26	0x3c588b5c	0.01321682
27	0xba352bef	-0.00069111487
28	0xbf278dda	-0.65450823
29	0x3f24f4ad	0.64435846
30	0x3bd44763	0.0064782365
31	0xbd073be8	-0.033016115
32	0x3f0e975b	0.556997
33	0xbf5370a9	-0.8259378
34	0x3ea4ddb1	0.32200387
35	0xbf411aaf	-0.7543134
36	0x3dd93687	0.106061034
37	0x3d0c2d2f	0.034222778
38	0xbf028711	-0.50987345
39	0x3ea6dfe6	0.32592696
40	0xbe8a151a	-0.26969224
41	0x3eb7ba2c	0.35884225
42	0x3f0f89e4	0.5606978
43	0x3d0266f8	0.03183648
44	0x3e4c90cc	0.1997711
45	0xbcaa5eaa	-0.020797092
46	0x3ea48d12	0.32138878
47	0xbefe6ffd	-0.49694815
48	0xbeb7e200	-0.35914612
49	0x3f2797d1	0.6546603
50	0xbed8768a	-0.42277938
51	0xbf3edf6c	-0.74559665
52	0x3d885c27	0.06658202
53	0x3eb9e32a	0.36306125
54	0x3f207e6e	0.62692916
55	0x3ee586c1	0.44829372
56	0x3db98d87	0.09060197
57	0xbe7ff403	-0.24995427
58	0xbdfafe1b	-0.12255498
59	0xbd68dd23	-0.056851517
60	0x3f2e5e08	0.6811223
61	0xbf240731	-0.64073473
62	0xbe02dc0c	-0.12779254
63	0x3e908dfe	0.2823333

2.bias f4 [2]
0	0x3e752a87	0.23942004
1	0xbe26b992	-0.16281727
