Lunarlander/saved_MODELS/best_model.pth (torch, 3103 bytes, 4 tensors)

0.weight f4 [32, 8]
0	0xbf18f0d8	-0.597425
1	0x3e55a751	0.20864607
2	0xbf4db85a	-0.80359423
3	0xbeec207e	-0.4611854
4	0x3f9423d5	1.1573435
5	0x3f72cd14	0.94844174
6	0xbf0f1c84	-0.55902886
7	0x3f20f518	0.62873983
8	0x3f12f4e4	0.57404923
9	0x3ec3b396	0.3822295
10	0x3f08c885	0.5343097
11	0xbe88872f	-0.26665637
12	0xbf89404a	-1.0722744
13	0xbf9c1635	-1.2194277
14	0xbf7fa7af	-0.9986524
15	0xbed544b8	-0.4165399
16	0x3edc8a32	0.43074185
17	0x3ea511c2	0.3224011
18	0x3f2abb7f	0.66692346
19	0x3d2f42f5	0.042788465
20	0xbf36ea3c	-0.71451163
21	0xbf66760c	-0.90023875
22	0xbf15f283	-0.5857317
23	0xbf2351bc	-0.6379659
24	0x3dcd2584	0.10016921
25	0xbe61526e	-0.220041
26	0xbe25ea9e	-0.1620278
27	0xbdaf3f35	-0.08556978
28	0xbe062fe7	-0.13104211
29	0x3e40e81f	0.18838547
30	0xbded6335	-0.11591188
31	0xbeb149ac	-0.3462652
32	0xbe68528b	-0.22687738
33	0xbdb47774	-0.088118464
34	0xbedd1d05	-0.43186203
35	0xbec105e0	-0.37699795
36	0xbf08cf61	-0.53441435
37	0xbd164ede	-0.036696307
38	0xbea22ef8	-0.3167646
39	0x3defd912	0.11711325
40	0x3dcfb5ac	0.10142073
41	0xbe12cc09	-0.14335646
42	0xbdb8b97b	-0.090197526
43	0x3eaa1f65	0.33227077
44	0x3e129860	0.14315939
45	0x3d564a11	0.05231673
46	0xbe074da8	-0.13213217
47	0xbebd8c43	-0.37021074
48	0x3ea4ee00	0.3221283
49	0xbdb88d81	-0.09011365
50	0x3ecdfe18	0.4023292
51	0xbfd59fed	-1.668943
52	0xbf3edb41	-0.74553305
53	0xbd7a1ee0	-0.0610646
54	0xbda6e51a	-0.081491664
55	0xbe18ba6e	-0.14914867
56	0x3ed1c06f	0.40967128
57	0x3e8c861c	0.27446067
58	0x3f846b0f	1.0345172
59	0x3ed4640d	0.41482583
60	0xbf859ffe	-1.0439451
61	0xbf7c35d9	-0.98519665
62	0xbedb55d7	-0.42838928
63	0xbec3d4a1	-0.3824816
64	0xbf76a9f3	-0.9635307
65	0x3d7ac169	0.061219607
66	0xbde89c68	-0.11357957
67	0xbf4d7702	-0.80259717
68	0x3f728a89	0.9474264
69	0x3f99be5a	1.2011216
70	0xbe6abff3	-0.22924785
71	0x3f17a81e	0.592409
72	0x3e691eed	0.22765703
73	0xbed2a332	-0.41140133
74	0xbe47ff91	-0.19531085
75	0x3e2271b6	0.1586369
76	0x3d8c8939	0.06862111
77	0xbd87d471	-0.06632317
78	0x3ae23173	0.0017257169
79	0xbdcb1a28	-0.09917098
80	0x3ea77da8	0.32713056
81	0x3b275aaa	0.0025536218
82	0x3f6baa65	0.92056876
83	0xbe47b77e	-0.1950359
84	0xbfa87eb3	-1.3163666
85	0xbf29ea95	-0.6637357
86	0xbeb26bac	-0.34847772
87	0xbdf567bd	-0.11982677
88	0x3e64a085	0.22326858
89	0x3d369930	0.044579685
90	0x3f26ca17	0.65152115
91	0x3ee46dd1	0.44615033
92	0xbf202146	-0.6255077
93	0xbf208be0	-0.6271343
94	0xbef2fe9a	-0.4745987
95	0xbf5b3ae5	-0.8563674
96	0xbf1f2388	-0.6216359
97	0xbed1307e	-0.4085731
98	0xbf181b1f	-0.59416384
99	0x3ecbc659	0.39799765
100	0x3f205505	0.6262973
101	0xbe3532e0	-0.17695189
102	0x3f200951	0.62514216
103	0x3ef626eb	0.48076567
104	0x3d0726e4	0.032996073
105	0x3e2bed01	0.16789629
106	0x3f090f36	0.53538835
107	0x3f70126f	0.9377813
108	0xbed00d65	-0.4063522
109	0xbc6ed07b	-0.014576073
110	0x3ea6f66c	0.3260988
111	0x3e04a166	0.12952194
112	0xbecdc08b	-0.4018596
113	0x3e90903f	0.2823505
114	0xbf3f4dfe	-0.7472838
115	0xbf477048	-0.779057
116	0x3f89d6e0	1.07687
117	0x3f671061	0.9025937
118	0xbf078fc5	-0.5295375
119	0xbe3b3414	-0.18281585
120	0xbe6b9b61	-0.23008491
121	0xbf5d2115	-0.86378604
122	0x3f092894	0.5357754
123	0x3e98176a	0.29705364
124	0x3e945c5d	0.28976718
125	0x3f103088	0.5632405
126	0x3e809d80	0.25120163
127	0x3e0b8ca9	0.13627876
128	0x3f2a38e1	0.6649304
129	0x3e70323e	0.23456666
130	0x3f497d26	0.78706586
131	0x3f02f382	0.51152813
132	0xbf730689	-0.94931847
133	0xbf063665	-0.5242675
134	0xbee4a393	-0.44656047
135	0xbf57bd32	-0.84273064
136	0xbeb6f7e6	-0.35736006
137	0x3e8ed8a1	0.2789965
138	0xbf50987b	-0.81482667
139	0xbe3d5a5f	-0.18491505
140	0x3f91a007	1.1376961
141	0x3f961257	1.1724347
142	0xbe624a90	-0.22098756
143	0x3e1347fb	0.14382927
144	0x3f415cef	0.7553243
145	0x3e93a056	0.28833264
146	0x3f361dca	0.71139205
147	0x3e752804	0.23941046
148	0xbf6643b4	-0.89947057
149	0xbf394875	-0.72376186
150	0xbf0f6999	-0.56020504
151	0xbeb9092d	-0.36139813
152	0xbf3bda5f	-0.7338008
153	0xbd39f42b	-0.045398872
154	0xbf226988	-0.6344228
155	0x3eff0c4c	0.4981407
156	0x3f607abc	0.8768728
157	0x3eec0755	0.46099344
158	0x3dc8795c	0.097887725
159	0x3f397eab	0.72458905
160	0xbed426dc	-0.41435897
161	0x3e16ab47	0.14713775
162	0xbe7c0734	-0.24612123
163	0x3f89b3f8	1.0758047
164	0x3f137177	0.5759501
165	0x3e6ca5fa	0.2311019
166	0xbf248953	-0.6427204
167	0xbe8e027f	-0.2773628
168	0xbf638fcd	-0.888913
169	0x3cb93a61	0.022610845
170	0xbf5bb2d3	-0.8581974
171	0xbd7e3dcc	-0.062070653
172	0x3f72eee7	0.94895786
173	0x3f4a8295	0.791055
174	0xbf3b1297	-0.7307524
175	0xbf1cb1c8	-0.6120877
176	0xbeaaea08	-0.33381677
177	0xbda87e7a	-0.082272485
178	0xbf0282d9	-0.5098091
179	0xbf7966b9	-0.9742237
180	0x3f33f8de	0.70301616
181	0x3df1badd	0.118032195
182	0xbe1039bf	-0.14084528
183	0x3e29ed07	0.16594325
184	0xbe2417eb	-0.16024749
185	0x3e0087b5	0.12551768
186	0xbedcf3ea	-0.43154842
187	0x3f4fe7a2	0.8121282
188	0x3eb6161d	0.35563746
189	0x3f484319	0.7822738
190	0xbe91662b	-0.2839826
191	0xbeb03614	-0.34416258
192	0x3eaf9a15	0.34297243
193	0xbedeae9a	-0.43492585
194	0x3ec04c1a	0.3755806
195	0xbfc6d04d	-1.5532318
196	0x3e6b6f51	0.22991683
197	0x3e202288	0.15638173
198	0xbd7b5ad8	-0.061365932
199	0x3d8a2c2a	0.06746705
200	0xbf9204ec	-1.1407752
201	0xbc53be8e	-0.01292385
202	0xbfb07f0d	-1.3788773
203	0xbcba6509	-0.022753255
204	0x3f2b808c	0.6699302
205	0x3f0d3840	0.55163956
206	0xbed22a3f	-0.41047856
207	0xbdf82f7f	-0.12118434
208	0xbdc6ec8c	-0.097130865
209	0x3d824fd3	0.063628815
210	0x3e37595b	0.1790518
211	0x3e80027a	0.2500189
212	0x3e4de4d3	0.20106821
213	0xbe13844e	-0.14405939
214	0xbc6c0d18	-0.014407419
215	0x3de9d586	0.114176795
216	0xbf7da530	-0.9908018
217	0x3ead5f1c	0.33861625
218	0xbf7adf64	-0.9799712
219	0xbe5adbf7	-0.21372972
220	0x3fb48dd1	1.4105779
221	0x3fad43c8	1.353631
222	0xbf84369c	-1.0329165
223	0xbd767728	-0.06017223
224	0xbeeb4a03	-0.45954904
225	0x3e2dd73e	0.1697664
226	0xbf659182	-0.8967515
227	0x3f4cd8f9	0.80018574
228	0x3f40708a	0.7517172
229	0x3f69ecd4	0.91376996
230	0x3e8709a6	0.2637455
231	0x3f50595f	0.8138637
232	0x3cc5118f	0.024056224
233	0x3ebcc9aa	0.36872607
234	0x3f45180b	0.7698981
235	0x3e7d5d9c	0.2474274
236	0xbf2b181e	-0.66833675
237	0xbf2bafb8	-0.67065
238	0x3eb37f17	0.350579
239	0xbeaa6235	-0.3327805
240	0x3ddf1da1	0.10894323
241	0x3dfb5e32	0.12273826
242	0xbeb115c4	-0.34586918
243	0x3ce0b023	0.027427739
244	0x3e811755	0.25213113
245	0x3e08510e	0.1331217
246	0x3dbd59fc	0.09245679
247	0xbe70f806	-0.23532113
248	0x3f466774	0.77501607
249	0x3c353a65	0.011061286
250	0x3f71c7e9	0.94445664
251	0xbf644a93	-0.8917629
252	0xbf87e18b	-1.0615705
253	0xbfa8a070	-1.3173962
254	0xbefafad9	-0.49019507
255	0xbe962336	-0.2932374

0.bias f4 [32]
0	0x3c32096c	0.010866504
1	0x3ca3b037	0.019981487
2	0xbd9ec2b0	-0.077519774
3	0xbf00c629	-0.5030237
4	0xbd398637	-0.045294013
5	0xbe8de25e	-0.27711767
6	0xbd2a0109	-0.041504893
7	0x3e570208	0.20996869
8	0xbe99dbf4	-0.30050623
9	0xbe791217	-0.24323307
10	0x3e9b51d7	0.30335876
11	0x3e80d2c2	0.25160795
12	0x3e90dd58	0.28293872
13	0x3eb3d81a	0.3512581
14	0xbe30363e	-0.17208192
15	0xbf05818b	-0.5215079
16	0x3e5f4eb5	0.21807368
17	0xbe1b6328	-0.15174544
18	0x3d9d7cf5	0.07689849
19	0x3ecca147	0.39966795
20	0x3ef7d540	0.48404884
21	0x3e3d9a6c	0.18515939
22	0x3d396b97	0.04526862
23	0x3ea4b946	0.32172602
24	0xbd468032	-0.0484621
25	0x3e1dc89f	0.15408562
26	0xbeff29d9	-0.49836615
27	0xbe01a614	-0.1266101
28	0x3ed34cab	0.4126943
29	0xbe1af0b2	-0.1513088
30	0xbed655fa	-0.4186247
31	0x3e88395e	0.26606268

2.weight f4 [4, 32]
0	0xbef2e795	-0.47442308
1	0xbecd6557	-0.4011638
2	0xbda31a3e	-0.0796399
3	0x3d5cc553	0.05389912
4	0xbe237a51	-0.15964629
5	0x3e01c6f7	0.12673555
6	0xbf67791c	-0.90419173
7	0xbd6b34b8	-0.057423323
8	0xbf0d126a	-0.5510622
9	0x3e8a4c84	0.27011502
10	0xbe8f54af	-0.27994296
11	0xbc0e3c02	-0.008681299
12	0x3e359c3c	0.1773538
13	0x3ea63458	0.3246181
14	0xbf20056d	-0.6250828
15	0xbddf5a2c	-0.10905871
16	0x3db9bd8a	0.09069355
17	0xbecd8b53	-0.40145358
18	0xbe1e81c0	-0.15479183
19	0xbe6cfecc	-0.23144072
20	0x3e8a6cdd	0.2703618
21	0xbec7c7c0	-0.39019585
22	0xbec23554	-0.3793131
23	0x3db80de9	0.08987028
24	0xbf6bea7e	-0.9215468
25	0xbe98a2a6	-0.2981159
26	0x3d79bad6	0.060969196
27	0xbdb949e6	-0.09047298
28	0xbe08fac8	-0.13376915
29	0x3e8a2a30	0.26985312
30	0x3e2650b1	0.16241719
31	0xbf2f0f18	-0.68382406
32	0xbf13d4d3	-0.5774662
33	0x3ef9ca01	0.4878693
34	0x3f0b6276	0.54447114
35	0x3c8c4153	0.017120993
36	0x3d6193f8	0.055072755
37	0xbd2b9d22	-0.0418979
38	0xbbf3f3d8	-0.00744484
39	0x3f2a9cf2	0.6664573
40	0xbf55f4bf	-0.8357658
41	0x3d85d553	0.06534829
42	0x3ed59b18	0.4171989
43	0x3e932cb8	0.28745055
44	0xbf2e33d3	-0.6804783
45	0x3e29b07c	0.1657123
46	0xbf1cf9ff	-0.61318964
47	0x3f1364c6	0.57575643
48	0x3f5a3f47	0.85252804
49	0xbf1dc220	-0.61624336
50	0x3efcfa7e	0.4940986
51	0xbeb218d0	-0.34784555
52	0x3e8b3fa4	0.2719699
53	0xbf2412ea	-0.6409136
54	0xbec21d74	-0.37913096
55	0x3cebfe9b	0.028807929
56	0xbed695ca	-0.41911155
57	0xbf38122a	-0.71902716
58	0xbc94a4ef	-0.018145053
59	0xbf51d012	-0.81958115
60	0xbe96be28	-0.29441953
61	0x3eaf3527	0.3422024
62	0xbe086f2b	-0.13323657
63	0x3eeb2101	0.45923617
64	0x3e86cc65	0.26327816
65	0x3e58acd3	0.21159677
66	0xbd2ef4a0	-0.04271376
67	0xbd2c5845	-0.042076368
68	0x3e415d1b	0.18883173
69	0x3e2097d5	0.1568292
70	0x3f5eaabb	0.86979264
71	0xbeccbd52	-0.3998819
72	0x3f1e2283	0.6177141
73	0x3cef0ec6	0.02918185
74	0x3d31ecca	0.04343871
75	0xbe59e887	-0.21280108
76	0xbe1e616e	-0.15466854
77	0xbf9c4cae	-1.2210901
78	0x3e90ca20	0.2827921
79	0xbe53f4c3	-0.20698838
80	0xbee649b2	-0.449781
81	0xbd000705	-0.031256694
82	0xbded50ea	-0.11587699
83	0xbeb5c884	-0.35504544
84	0xbf9dc189	-1.2324687
85	0x3cf0ce17	0.029395146
86	0x3ef5bde2	0.47996432
87	0xbf17b6e9	-0.59263474
88	0x3f8e2565	1.1105162
89	0x3e22133e	0.15827653
90	0xbd84e1b3	-0.06488361
91	0x3e31352d	0.17305441
92	0xbf2265f0	-0.63436794
93	0xbd98c3da	-0.07459231
94	0xbe167fe0	-0.14697218
95	0x3ef99aab	0.48750815
96	0x3f389197	0.7209715
97	0xbed32388	-0.41238046
98	0xbf43a034	-0.76416326
99	0x3c68050c	0.0141613595
100	0xbd53cc82	-0.051708706
101	0xbdd3d51d	-0.103433825
102	0xbf1fb9d4	-0.62392926
103	0xbf4de44c	-0.8042648
104	0x3edc910e	0.43079418
105	0x3c6c3144	0.014416043
106	0xbf401cf9	-0.7504421
107	0xbea35a60	-0.31904888
108	0x3f166e3b	0.5876195
109	0xbd0df5a8	-0.034658104
110	0x3f130563	0.57430094
111	0xbec0da2c	-0.37666452
112	0xbf1f9e8f	-0.62351316
113	0x3f1eb87d	0.62000257
114	0xbf2d2e83	-0.67649096
115	0x3f40dc2d	0.7533596
116	0x3f515998	0.81777334
117	0x3f6810ff	0.90650934
118	0x3e93e41a	0.28884965
119	0x3f027277	0.5095591
120	0xbea41e0b	-0.3205417
121	0x3ef9e11d	0.4880456
122	0xbd005273	-0.03132863
123	0x3f50dcba	0.815868
124	0x3f4907e1	0.7852765
125	0xbef3e921	-0.476388
126	0x3e576f82	0.2103863
127	0xbf7a48cb	-0.97767323

2.bias f4 [4]
0	0xbe6680c3	-0.22510056
1	0x3d9f1b22	0.07768847
2	0x3e79ec4e	0.2440655
3	0x3e5612ee	0.20905659
