Lunarlander/saved_MODELS/best_model_policy_gradient.pth (torch, 3103 bytes, 4 tensors)

0.weight f4 [32, 8]
0	0xbe8b06cc	-0.27153623
1	0xbf18c72e	-0.59678924
2	0xbf1bb9d2	-0.60830414
3	0xbf9f4607	-1.2443246
4	0x3f79f898	0.9764495
5	0x3fa999c4	1.325005
6	0x3eaec7a5	0.34136692
7	0xbec95691	-0.39323857
8	0xbf28a24f	-0.65872663
9	0x3c151e5a	0.009101475
10	0xbf60c829	-0.8780542
11	0xbd09b2d8	-0.033617824
12	0x3fb2f98c	1.3982406
13	0x3f8838f2	1.0642378
14	0xbe300db2	-0.17192724
15	0x3e552dbd	0.20818229
16	0x3f37f40b	0.71856755
17	0x3eccf3fe	0.400299
18	0x3e90397b	0.28168854
19	0x3e5521a4	0.20813614
20	0xbe96cbbc	-0.29452312
21	0x3d8dca15	0.0692331
22	0xbea9bf56	-0.3315379
23	0xbe9582de	-0.29201406
24	0xbeb8caf8	-0.36092353
25	0xbf1b096d	-0.6056126
26	0xbe796612	-0.24355343
27	0xbf81ef83	-1.0151218
28	0x3f12aaa0	0.57291603
29	0x3fc69426	1.5513961
30	0x3e906b56	0.2820689
31	0xbe6afdce	-0.22948381
32	0x3ea0442b	0.31302008
33	0xbedfceeb	-0.43712553
34	0x3da3dd06	0.08001141
35	0xbef7baa6	-0.4838459
36	0x3e4780ae	0.19482681
37	0xbf9b6180	-1.213913
38	0xbf331ad7	-0.6996283
39	0x3f486c9f	0.7829074
40	0xbe9b45f6	-0.30326813
41	0xbe21b4eb	-0.15791671
42	0xbe82bad3	-0.2553316
43	0xbe86a6fa	-0.26299268
44	0x3e84d5d2	0.25944382
45	0x3de703c1	0.11280013
46	0xbe73b75d	-0.23800416
47	0x3dba4057	0.09094303
48	0x3e2aee1a	0.16692391
49	0xbf380391	-0.7188044
50	0x3ea712e0	0.32631588
51	0xbf90207b	-1.1259912
52	0xbecce856	-0.40021008
53	0xbd40fdad	-0.047116924
54	0x3e601113	0.21881513
55	0x3eb78e90	0.35850954
56	0x3e4e4163	0.2014213
57	0x3f3b21d4	0.7309849
58	0x3e298411	0.16554286
59	0x3f85f9eb	1.0466894
60	0xbe947d9f	-0.2900209
61	0x3de1db9c	0.11028215
62	0x3eae2f8c	0.3402065
63	0xbe6ac36d	-0.22926112
64	0x3ef1ce56	0.47227734
65	0xbea953a5	-0.33071628
66	0x3f302d49	0.688191
67	0xbf7dac2a	-0.99090827
68	0xbf9a9cae	-1.2079065
69	0xbe1a2f85	-0.1505719
70	0x3ef18705	0.47173324
71	0xbf3f2bb6	-0.7467607
72	0xbc241250	-0.010014132
73	0xbfa6f178	-1.304244
74	0x3d37c682	0.044867046
75	0x403201a2	2.7813497
76	0xbd8ed5a2	-0.06974341
77	0xbda1ca70	-0.0789994
78	0x3f221fdb	0.6332986
79	0x3ef2f4bf	0.4745235
80	0xbd903945	-0.07042173
81	0xbeaea22a	-0.34108096
82	0xba823e06	-0.0009936697
83	0x3c9d161f	0.019175587
84	0x3e0f209f	0.13977288
85	0xbd995e05	-0.07488636
86	0xbde0586d	-0.10954366
87	0xbeab8bdf	-0.3350515
88	0x3db7b432	0.089699164
89	0xbec9f568	-0.39445043
90	0xbe8d9aae	-0.27657074
91	0xbdb89e1c	-0.09014532
92	0x3d5d6ea0	0.05406058
93	0x3e9cd6c7	0.30632612
94	0xbe9c4b9e	-0.3052644
95	0xbe1a3162	-0.150579
96	0x3e60a092	0.21936253
97	0xbd3158db	-0.04329763
98	0x3d95efe7	0.07321148
99	0xbd5146f6	-0.051093064
100	0x3d06743b	0.03282569
101	0x3e2ead1d	0.17058225
102	0xbe6e854f	-0.2329304
103	0xbe17bf37	-0.14819036
104	0x3d16a946	0.036782525
105	0xbf14f032	-0.5817901
106	0xbe3d1cd5	-0.1846803
107	0x3f95fbb3	1.1717438
108	0x3e21c110	0.15796304
109	0xbed096ea	-0.40740138
110	0x3f56a51d	0.8384569
111	0x3e7bbec2	0.24584487
112	0xbd6b85e9	-0.057500754
113	0xbf678cf8	-0.90449476
114	0xbe68e7b0	-0.22744632
115	0xbfaae484	-1.3350987
116	0xbcf75eb0	-0.030196518
117	0x3dbe525c	0.092930526
118	0x3e3b5627	0.18294583
119	0x3f69456c	0.91121554
120	0x3b3e72a1	0.0029060023
121	0xbf2e7912	-0.6815349
122	0xbeccc41c	-0.3999337
123	0xbf782c6f	-0.969428
124	0xbeeb5fbe	-0.45971483
125	0x3eefa397	0.46804497
126	0x3f280723	0.6563589
127	0xbf40658d	-0.75154954
128	0x3dd6e4f9	0.10492892
129	0xbe9fb2ca	-0.31191093
130	0x3eac1966	0.33613127
131	0x3e43ffc2	0.19140533
132	0xbe9079ca	-0.28217918
133	0xbe5ede92	-0.21764591
134	0xbea5c431	-0.32376245
135	0xbed014bc	-0.4064082
136	0x3f1b4c8a	0.60663664
137	0x3f0621cd	0.52395326
138	0x3f04110e	0.51588523
139	0xbe27ef58	-0.16399896
140	0xbf372b26	-0.71550214
141	0xbf25b25a	-0.6472527
142	0xbe7ebfd2	-0.24877861
143	0xbf3d9448	-0.74054384
144	0x3f1cb147	0.61208004
145	0xbd227401	-0.03966141
146	0x3ec765ea	0.38944942
147	0xbf2a5786	-0.665398
148	0xbfbd51bd	-1.479057
149	0xbfd5c8b4	-1.6701875
150	0xbf1abd35	-0.60444957
151	0x3e9876ef	0.2977824
152	0xbe0f8b25	-0.14017923
153	0xbe73ef12	-0.23821667
154	0xbe00e1a6	-0.12586078
155	0x3e16363e	0.14669129
156	0xbb41a703	-0.002954901
157	0xbe2d60c5	-0.16931446
158	0xbd287330	-0.041125476
159	0xbe853609	-0.26017788
160	0xbe56a143	-0.20959954
161	0xbe6e06d5	-0.23244794
162	0x3e36206c	0.17785805
163	0xbe5d4ebf	-0.2161207
164	0x3ea4211e	0.32056516
165	0xbe8c8192	-0.27442604
166	0xbe6bb699	-0.23018874
167	0x3c9ce42d	0.019151771
168	0xbec2d95c	-0.38056457
169	0x3ebae5e0	0.36503506
170	0xbf10b682	-0.56528485
171	0xbe82e74a	-0.25567085
172	0x3f917c87	1.1366128
173	0x3fa990be	1.3247297
174	0xbfa4bd0a	-1.287019
175	0xbe8a1edc	-0.2697667
176	0xbe2cabf3	-0.16862468
177	0xbf53c53a	-0.8272282
178	0x3dd736c3	0.10508492
179	0xbfa6ec03	-1.3040775
180	0x3d88dd4a	0.066828325
181	0xbe336cf9	-0.17522039
182	0x3ea58054	0.3232447
183	0x3ef05ff4	0.46948206
184	0xbed47a2a	-0.41499454
185	0x3ebf49ac	0.37360895
186	0xbf4185ae	-0.75594604
187	0x3f1c4801	0.6104737
188	0x3f611f90	0.87938786
189	0x3efa3959	0.48871878
190	0x3e94b757	0.29046127
191	0x3e1a9298	0.15094984
192	0xbf3257e8	-0.69665384
193	0x3ef1ba41	0.47212413
194	0xbf43c8e7	-0.7647843
195	0x3e128d74	0.14311773
196	0x3fd6ca7a	1.6780541
197	0x3f1c1205	0.60964996
198	0x3ec7fbbb	0.39059243
199	0xbda5a78a	-0.08088596
200	0x3ebbcf56	0.36681622
201	0xbeb80608	-0.359421
202	0x3edf33f3	0.43594322
203	0x3ec3b543	0.3822423
204	0xbcc7e8f3	-0.024403071
205	0x3d7b7d10	0.061398566
206	0x3d808c72	0.06276788
207	0xbd2f5c6f	-0.04281276
208	0x3eb36d24	0.35044205
209	0x3ef4d3f6	0.47817963
210	0x3eb59edc	0.35472763
211	0x3fcf34c9	1.6187984
212	0xbeb20dfc	-0.34776294
213	0xbd9a4105	-0.07531933
214	0x3f8cafbb	1.0991129
215	0x3e1e7b6d	0.1547677
216	0xbf1a6ab3	-0.6031906
217	0x3e836648	0.25663972
218	0xbf7c5275	-0.9856332
219	0x3e28be3b	0.16478817
220	0x3fd6a817	1.6770047
221	0x3eb396b0	0.35075903
222	0xbde7956e	-0.11307798
223	0x3e7ec984	0.2488156
224	0xbf30500a	-0.6887213
225	0xbd323864	-0.04351081
226	0xbf444692	-0.7667018
227	0xbe869816	-0.26287907
228	0x3fa9ff25	1.3280989
229	0x3f9b0354	1.2110391
230	0xbdcb107c	-0.099152535
231	0x3e80baa4	0.25142395
232	0xbeb02818	-0.3440559
233	0x3c26f0e3	0.010189268
234	0x3e21fb3e	0.15818498
235	0x3fa06082	1.2529452
236	0xbdd751e6	-0.10513668
237	0xbe1782d0	-0.14795995
238	0x3fc18402	1.511841
239	0x3f1d88cc	0.6153686
240	0xbef6a606	-0.4817354
241	0xbe34743b	-0.17622463
242	0x3dce6485	0.10077766
243	0xbea6b8c5	-0.32562843
244	0x3edc9bf4	0.43087733
245	0xbea3ba61	-0.31978133
246	0xbefb9036	-0.49133462
247	0x3e837d6f	0.25681636
248	0xbe6fc990	-0.23416734
249	0x3e5508cb	0.20804136
250	0xbf136231	-0.57571703
251	0x3e5beaa7	0.21476232
252	0x3f50e9b4	0.816066
253	0x3f2eaf0f	0.6823587
254	0xbf91e6bd	-1.1398541
255	0xbf085536	-0.5325502

0.bias f4 [32]
0	0x3cb5322e	0.022118654
1	0x3eaa54fd	0.33267966
2	0x3ea64a8a	0.32478744
3	0xbda83c94	-0.08214679
4	0xbc15297d	-0.00910413
5	0xbe833e2d	-0.25633374
6	0x3e9631b6	0.293348
7	0x3ee6e1e3	0.45094213
8	0x3e538625	0.20656641
9	0x3e5c2803	0.21499638
10	0xbeceb2c6	-0.40370768
11	0xbeb1929a	-0.3468216
12	0xbec63a93	-0.38716564
13	0xbea9028e	-0.33009762
14	0x3e58d05d	0.21173234
15	0x3d9d423a	0.07678647
16	0xbe255006	-0.16143808
17	0x3cb83a69	0.02248879
18	0x3e9876c7	0.2977812
19	0xbe86eefb	-0.26354203
20	0xbef1e5ca	-0.47245628
21	0xbd811fa5	-0.06304864
22	0x3e3a275d	0.18179078
23	0x3e9b1bc9	0.30294636
24	0x3d0de1df	0.034639236
25	0xbe911927	-0.28339502
26	0x3f2f7925	0.68544227
27	0x3e25ca51	0.16190459
28	0x3e54517e	0.20734212
29	0xbde836fd	-0.11338613
30	0x3bd26fd1	0.006422021
31	0x3e1a69f3	0.15079479

2.weight f4 [4, 32]
0	0xbf50ae8e	-0.8151635
1	0xbcbcb4ce	-0.023035433
2	0x3cd4c74a	0.025973935
3	0xbf159e0f	-0.58444303
4	0xbe3c2753	-0.18374376
5	0xbe1ba14d	-0.1519825
6	0xbeab61a7	-0.3347294
7	0x3ee82f12	0.45348412
8	0xbe86fb06	-0.2636339
9	0x3f5fef7c	0.874748
10	0xbd94023e	-0.0722699
11	0x3e07c937	0.13260351
12	0x3e0f3c37	0.13987814
13	0x3f12d3a8	0.5735421
14	0xbebabb64	-0.36471093
15	0xbf4464ea	-0.7671648
16	0x3def1585	0.116740264
17	0x3d9b4a93	0.07582583
18	0xbecba9dc	-0.3977803
19	0x3d05606d	0.032562662
20	0xbd7f5bc8	-0.06234339
21	0xbdefb8ed	-0.11705194
22	0xbe8c9b41	-0.274622
23	0x3ea57d25	0.3232204
24	0x3e37782c	0.17916936
25	0x3dfd3334	0.12363282
26	0x3fb07172	1.3784621
27	0x3de11a82	0.10991384
28	0xbdc65cc0	-0.096856594
29	0x3f82c81f	1.0217322
30	0xbe274486	-0.16334733
31	0x3d5d2883	0.053993713
32	0xbf6ed34d	-0.9329117
33	0xbf428830	-0.75989056
34	0x3ebc8580	0.36820602
35	0xbf002535	-0.50056773
36	0xbe851384	-0.25991452
37	0xbd80cca3	-0.06289031
38	0x3e191fa1	0.14953472
39	0x3e9779fd	0.29585257
40	0x3f2b33a8	0.66875696
41	0xbe95fcf4	-0.2929455
42	0x3daec976	0.085345194
43	0x3d739dce	0.059476666
44	0x3d536be9	0.051616583
45	0xbec1dc62	-0.3786345
46	0xbdc2fc7e	-0.09520815
47	0x3e189381	0.14900018
48	0xbd046229	-0.032320175
49	0x3ef6f33a	0.48232442
50	0x3f8bafdc	1.0913043
51	0x3dfaaa3f	0.12239503
52	0xbcedef5a	-0.029044796
53	0xbf4d6add	-0.80241185
54	0xbba0c858	-0.0049066953
55	0xbf285772	-0.6575843
56	0xbf3a6d31	-0.7282286
57	0x3e8c2fbd	0.2738017
58	0x3e4040fa	0.18774787
59	0xbf0d8e96	-0.55295694
60	0xbf170ced	-0.590041
61	0xbee12d56	-0.439799
62	0xbe013ff5	-0.12622054
63	0xbed22a0c	-0.41047704
64	0x3f8bf78a	1.0934918
65	0x3e0534b3	0.13008384
66	0xbe8cdcd7	-0.27512237
67	0x3f7f7ba2	0.99798024
68	0x3f4fe6f6	0.81211793
69	0xbc5e81a2	-0.013580712
70	0x3f3be0db	0.7338998
71	0xbf32e6e4	-0.6988356
72	0x3ed8f41f	0.4237375
73	0xbf41ee0f	-0.75753874
74	0x3dbe940c	0.093055815
75	0xbd9ea0ae	-0.07745491
76	0x3d94409a	0.07238884
77	0xbea2006b	-0.31640944
78	0x3f82791c	1.019321
79	0x3f77e4ce	0.96833503
80	0xbe15ce03	-0.14629368
81	0xbea45612	-0.32096916
82	0x3f12609f	0.5717868
83	0xbdfee15d	-0.124453284
84	0xbdcfbbaf	-0.1014322
85	0xbe4f0cae	-0.2021968
86	0x3f4db7f6	0.8035883
87	0xbef1bf40	-0.47216225
88	0xbe795de2	-0.2435222
89	0xbd897a52	-0.06712784
90	0xbf938c94	-1.1527276
91	0xbe03163a	-0.12801448
92	0x3e8d2ce4	0.2757331
93	0x3e451180	0.19244957
94	0x3e5acac7	0.21366416
95	0xbebabe71	-0.3647342
96	0x3ec2f326	0.38076133
97	0x3f3559b7	0.7084002
98	0x3d6258e7	0.055260565
99	0x3dbcc368	0.09216958
100	0xbe6d8b67	-0.23197709
101	0x3e8a791c	0.27045524
102	0xbecae41a	-0.39627153
103	0x3dc00177	0.093752794
104	0xbf0a81b2	-0.5410415
105	0xbea52e8b	-0.32262072
106	0x3dbf3852	0.09336914
107	0xbd49026b	-0.04907457
108	0x3d32a79a	0.04361687
109	0xbec4ce6e	-0.38438743
110	0xbe5f8f0d	-0.21831913
111	0xbe954420	-0.29153538
112	0xbe014ed5	-0.12627728
113	0xbef4423f	-0.47706792
114	0xbf8adc4b	-1.0848478
115	0xbe20a7a5	-0.15688951
116	0xbceb99e5	-0.028759906
117	0x3f3ae635	0.7300752
118	0xbe02a756	-0.12759146
119	0x3edabc4b	0.4272178
120	0x3f6588a0	0.896616
121	0x3dbaec2b	0.09127077
122	0xbf0c64a1	-0.5484105
123	0x3f3b5888	0.7318196
124	0x3f1fe1c0	0.6245384
125	0xbf50dd65	-0.8158782
126	0x3e34fc50	0.17674375
127	0x3ef79ec5	0.4836332

2.bias f4 [4]
0	0x3e1ffc5f	0.15623616
1	0x3e599b20	0.21250582
2	0xbd9ffdec	-0.07812104
3	0xbc363fa0	-0.011123568
