Lunarlander/saved_MODELS/best_model_policy_gradient.pth (torch, 3103 bytes, 4 tensors)

0.weight f4 [32, 8]
0	0xbe85e814	-0.26153624
1	0xbf1b568a	-0.60678923
2	0xbf192a76	-0.59830415
3	0xbf9dfe59	-1.2343246
4	0x3f7c87f4	0.9864495
5	0x3fa85216	1.3150051
6	0x3eb3e65d	0.3513669
7	0xbece7549	-0.40323856
8	0xbf2612f3	-0.64872664
9	0xba6b8b00	-0.0008985251
10	0xbf5e38cd	-0.8680542
11	0xbcc17a2b	-0.023617825
12	0x3fb4413a	1.4082406
13	0x3f8980a0	1.0742378
14	0xbe25d042	-0.16192725
15	0x3e4af04d	0.1981823
16	0x3f3564af	0.70856756
17	0x3ed212b6	0.410299
18	0x3e8b1ac3	0.27168855
19	0x3e4ae434	0.19813615
20	0xbe9bea74	-0.3045231
21	0x3d729e6b	0.05923311
22	0xbeaede0e	-0.3415379
23	0xbe9aa196	-0.30201405
24	0xbeb3ac40	-0.35092354
25	0xbf1d98c9	-0.61561257
26	0xbe81d1c1	-0.25355342
27	0xbf80a7d5	-1.0051218
28	0x3f1539fc	0.582916
29	0x3fc54c78	1.5413961
30	0x3e958a0e	0.2920689
31	0xbe753b3e	-0.2394838
32	0x3ea562e3	0.32302007
33	0xbee4eda3	-0.44712552
34	0x3db857e7	0.09001141
35	0xbef29bee	-0.4738459
36	0x3e51be1e	0.2048268
37	0xbf9ca92e	-1.223913
38	0xbf308b7b	-0.6896283
39	0x3f4afbfb	0.7929074
40	0xbe962744	-0.29326832
41	0xbe1777d1	-0.147918
42	0xbe7b384c	-0.24533194
43	0xbe8bc558	-0.27299
44	0x3e7f6e40	0.24944401
45	0x3dd28946	0.10280089
46	0xbe73b75d	-0.23800416
47	0x3da5c57e	0.08094309
48	0x3e20b0aa	0.15692392
49	0xbf3a92ed	-0.7288044
50	0x3ea1f428	0.3163159
51	0xbf8ed8cd	-1.1159912
52	0xbed2070e	-0.41021007
53	0xbd69f36f	-0.057116922
54	0x3e6a4e84	0.22881514
55	0x3ebcad48	0.36850953
56	0x3e4403f3	0.19142132
57	0x3f3db130	0.7409849
58	0x3e1f46a8	0.15554297
59	0x3f84b23d	1.0366894
60	0xbe999c57	-0.3000209
61	0x3df6567d	0.12028215
62	0x3ea910d4	0.3302065
63	0xbe7500dd	-0.2392611
64	0x3eecaf9e	0.46227735
65	0xbeae725d	-0.34071627
66	0x3f2d9ded	0.678191
67	0xbf7b1cce	-0.9809083
68	0xbf9be45c	-1.2179065
69	0xbe246cf6	-0.1605719
70	0x3ef6a5bd	0.48173323
71	0xbf41bb11	-0.75676066
72	0xb76dd400	-1.4175661e-05
73	0xbfa5a9cc	-1.2942443
74	0x3d60bc43	0.05486704
75	0x4032a579	2.7913496
76	0xbd74b583	-0.059743416
77	0xbd8d4f8f	-0.0689994
78	0x3f1f907f	0.6232986
79	0x3eedd607	0.46452352
80	0xbd903945	-0.07042173
81	0xbeaea22a	-0.34108096
82	0xba823e06	-0.0009936697
83	0x3c9d161f	0.019175587
84	0x3e0f209f	0.13977288
85	0xbd995e05	-0.07488636
86	0xbde0586d	-0.10954366
87	0xbeab8bdf	-0.3350515
88	0x3db7b432	0.089699164
89	0xbec9f568	-0.39445043
90	0xbe8d9aae	-0.27657074
91	0xbdb89e1c	-0.09014532
92	0x3d5d6ea0	0.05406058
93	0x3e9cd6c7	0.30632612
94	0xbe9c4b9e	-0.3052644
95	0xbe1a3162	-0.150579
96	0x3e60a092	0.21936253
97	0xbd3158db	-0.04329763
98	0x3d95efe7	0.07321148
99	0xbd5146f6	-0.051093064
100	0x3d06743b	0.03282569
101	0x3e2ead1d	0.17058225
102	0xbe6e854f	-0.2329304
103	0xbe17bf37	-0.14819036
104	0x3cdb671e	0.026782569
105	0xbf1260d9	-0.5717903
106	0xbe32df65	-0.17468031
107	0x3f974361	1.1817437
108	0x3e2bfe80	0.16796303
109	0xbecb7832	-0.3974014
110	0x3f5415c1	0.82845694
111	0x3e82fe19	0.25584486
112	0xbd8a3dd1	-0.06750072
113	0xbf6a1c54	-0.91449475
114	0xbe732520	-0.23744631
115	0xbfa99cd6	-1.3250988
116	0xbca5732d	-0.020196522
117	0x3da9d77b	0.08293053
118	0x3e459398	0.19294584
119	0x3f6bd4c8	0.92121553
120	0xbbe87460	-0.007093951
121	0xbf31086e	-0.6915349
122	0xbed1e2d4	-0.4099337
123	0xbf759d13	-0.959428
124	0xbee64106	-0.44971484
125	0x3eea84df	0.45804498
126	0x3f2a967f	0.6663589
127	0xbf42f4e9	-0.76154953
128	0x3dc26a70	0.094929576
129	0xbea4d001	-0.32189944
130	0x3eb13815	0.346131
131	0x3e39c268	0.18140566
132	0xbe95987c	-0.292179
133	0xbe54a128	-0.20764601
134	0xbea5c431	-0.32376245
135	0xbed014bc	-0.4064082
136	0x3f18bd2e	0.59663665
137	0x3f08b129	0.53395325
138	0x3f0181b2	0.50588524
139	0xbe322cc9	-0.17399897
140	0xbf39ba82	-0.72550213
141	0xbf2841b6	-0.65725267
142	0xbe847ea1	-0.2587786
143	0xbf4023a0	-0.7505436
144	0x3f1a21eb	0.60208005
145	0xbcf2fc7e	-0.029661413
146	0x3ec24732	0.37944943
147	0xbf27c82a	-0.655398
148	0xbfbe996b	-1.489057
149	0xbfd71062	-1.6801875
150	0xbf182dd9	-0.5944496
151	0x3e9d95a7	0.30778238
152	0xbe0f8b25	-0.14017923
153	0xbe73ef12	-0.23821667
154	0xbe00e1a6	-0.12586078
155	0x3e16363e	0.14669129
156	0xbb41a703	-0.002954901
157	0xbe2d60c5	-0.16931446
158	0xbd287330	-0.041125476
159	0xbe853609	-0.26017788
160	0xbe56a143	-0.20959954
161	0xbe6e06d5	-0.23244794
162	0x3e36206c	0.17785805
163	0xbe5d4ebf	-0.2161207
164	0x3ea4211e	0.32056516
165	0xbe8c8192	-0.27442604
166	0xbe6bb699	-0.23018874
167	0x3c9ce42d	0.019151771
168	0xbebdbaa4	-0.37056458
169	0x3eb5c728	0.35503507
170	0xbf0e2726	-0.55528486
171	0xbe7b9124	-0.24567086
172	0x3f92c435	1.1466128
173	0x3faad86c	1.3347297
174	0xbfa4bd0a	-1.287019
175	0xbe8f3d94	-0.27976668
176	0xbe36e963	-0.17862467
177	0xbf565496	-0.8372282
178	0x3dc2bbe2	0.09508492
179	0xbfa5a455	-1.2940775
180	0x3d9d582a	0.076828316
181	0xbe3daa6a	-0.18522039
182	0x3eaa9f0c	0.33324468
183	0x3ef57eac	0.47948205
184	0xbecf5b72	-0.40499455
185	0x3ec46863	0.3836089
186	0xbf3ef652	-0.74594605
187	0x3f19b8a5	0.6004737
188	0x3f63aeec	0.88938785
189	0x3eff5811	0.49871877
190	0x3e8f989f	0.28046128
191	0x3e105528	0.14094985
192	0xbf2fc88c	-0.68665385
193	0x3eec9b89	0.46212414
194	0xbf41398b	-0.7547843
195	0x3e085004	0.13311774
196	0x3fd81228	1.6880541
197	0x3f1ea161	0.61964995
198	0x3ec2dd04	0.38059247
199	0xbd912caa	-0.07088597
200	0x3ebbcf56	0.36681622
201	0xbeb80608	-0.359421
202	0x3edf33f3	0.43594322
203	0x3ec3b543	0.3822423
204	0xbcc7e8f3	-0.024403071
205	0x3d7b7d10	0.061398566
206	0x3d808c72	0.06276788
207	0xbd2f5c6f	-0.04281276
208	0x3eb88bdc	0.36044204
209	0x3ef9f2ae	0.48817962
210	0x3eb08024	0.34472764
211	0x3fcded1b	1.6087984
212	0xbeb72cb4	-0.35776293
213	0xbd85c624	-0.06531933
214	0x3f8b680d	1.0891129
215	0x3e143dfd	0.14476772
216	0xbf17db57	-0.5931906
217	0x3e7c8f1f	0.24663971
218	0xbf79c319	-0.9756332
219	0x3e32fbab	0.17478816
220	0x3fd7efc5	1.6870047
221	0x3eb8b568	0.36075902
222	0xbdd31a96	-0.10307805
223	0x3e748c14	0.2388156
224	0xbf2dc0ae	-0.6787213
225	0xbd5b2e26	-0.053510807
226	0xbf41b736	-0.7567018
227	0xbe81795e	-0.25287908
228	0x3fab46d3	1.3380989
229	0x3f9c4b02	1.221039
230	0xbdb6959b	-0.08915254
231	0x3e7737d8	0.24142396
232	0xbeb546cf	-0.35405585
233	0x3ca563f5	0.020189265
234	0x3e2c38ae	0.16818497
235	0x3fa1a830	1.2629452
236	0xbdc2d708	-0.0951367
237	0xbe0d4560	-0.13795996
238	0x3fc03c54	1.5018411
239	0x3f1af970	0.6053686
240	0xbef1874e	-0.47173542
241	0xbe3eb1ac	-0.18622464
242	0x3de2df65	0.110777654
243	0xbea19a0d	-0.31562844
244	0x3ee1baac	0.44087732
245	0xbea8d919	-0.32978132
246	0xbef6717e	-0.48133463
247	0x3e889c27	0.26681635
248	0xbe658c20	-0.22416735
249	0x3e5f463b	0.21804135
250	0xbf10d2d5	-0.56571704
251	0x3e51ad36	0.20476231
252	0x3f537910	0.826066
253	0x3f313e6b	0.6923587
254	0xbf91e6bd	-1.1398541
255	0xbf0ae492	-0.5425502

0.bias f4 [32]
0	0x3c468d52	0.012118654
1	0x3ea53645	0.32267967
2	0x3eab6942	0.33478743
3	0xbdbcb775	-0.09214679
4	0x3a6ad850	0.00089586247
5	0xbe885ce3	-0.26633367
6	0x3e9112fe	0.28334802
7	0x3eec009b	0.46094212
8	0x3e4948b4	0.1965664
9	0x3e51ea92	0.20499638
10	0xbeceb2c6	-0.40370768
11	0xbeb1929a	-0.3468216
12	0xbec63a93	-0.38716564
13	0xbeae2146	-0.3400976
14	0x3e4e92ec	0.20173234
15	0x3d88c759	0.066786475
16	0xbe1b129a	-0.15143815
17	0x3d0512f7	0.03248879
18	0x3e93580f	0.2877812
19	0xbe86eefb	-0.26354203
20	0xbef1e5ca	-0.47245628
21	0xbd959a86	-0.07304864
22	0x3e2fe9ec	0.17179078
23	0x3ea03a81	0.31294635
24	0x3d36d7a0	0.04463923
25	0xbe911927	-0.28339502
26	0x3f320881	0.69544226
27	0x3e1b8ce0	0.15190458
28	0x3e4a140d	0.19734211
29	0xbdfcb1de	-0.12338613
30	0xbb6a7c7a	-0.003577976
31	0x3e24a764	0.1607948

2.weight f4 [4, 32]
0	0xbf4e1f32	-0.8051635
1	0xbc559295	-0.013035436
2	0x3d135967	0.035973933
3	0xbf130eb3	-0.57444304
4	0xbe4664c4	-0.19374377
5	0xbe25de8e	-0.16198179
6	0xbea642ef	-0.3247294
7	0x3ee3105a	0.44348413
8	0xbe81dc4e	-0.25363392
9	0x3f5d6020	0.864748
10	0xbd94023e	-0.0722699
11	0x3e07c937	0.13260351
12	0x3e0f3c37	0.13987814
13	0x3f10444c	0.5635421
14	0xbeb59cac	-0.35471094
15	0xbf41d58e	-0.75716484
16	0x3dda9abb	0.10674044
17	0x3dafc574	0.08582583
18	0xbec68b24	-0.3877803
19	0x3d05606d	0.032562662
20	0xbd7f5bc8	-0.06234339
21	0xbddb3e0c	-0.10705194
22	0xbe877c89	-0.264622
23	0x3ea05e6d	0.3132204
24	0x3e2d3abc	0.16916937
25	0x3dfd3334	0.12363282
26	0x3faf29c4	1.3684621
27	0x3dcc9fa1	0.09991384
28	0xbdb1e1df	-0.086856596
29	0x3f818071	1.0117322
30	0xbe3181f6	-0.17334732
31	0x3d830f22	0.06399371
32	0xbf7162a9	-0.9429117
33	0xbf3ff8d4	-0.74989057
34	0x3ec1a438	0.378206
35	0xbf02b491	-0.5105677
36	0xbe7fe998	-0.24991453
37	0xbd952605	-0.07282642
38	0x3e0ee230	0.13953471
39	0x3e9c98b5	0.30585256
40	0x3f28a44c	0.658757
41	0xbe9b1bac	-0.3029455
42	0x3daec976	0.085345194
43	0x3d739dce	0.059476666
44	0x3d536be9	0.051616583
45	0xbec6fb1a	-0.3886345
46	0xbdd7775f	-0.10520815
47	0x3e0e5611	0.13900019
48	0xbd2d57c4	-0.042320028
49	0x3efc11f2	0.4923244
50	0x3f8cf78a	1.1013043
51	0x3dfaaa3f	0.12239503
52	0xbcedef5a	-0.029044796
53	0xbf4adb81	-0.79241186
54	0xbc743b32	-0.014906691
55	0xbf25c816	-0.6475843
56	0xbf37ddd5	-0.71822864
57	0x3e8c2fbd	0.2738017
58	0x3e4a7e6a	0.19774786
59	0xbf0aff3a	-0.54295695
60	0xbf199c49	-0.600041
61	0xbee64c0e	-0.449799
62	0xbdee050a	-0.11622055
63	0xbecd0b54	-0.40047705
64	0x3f8aafdc	1.0834918
65	0x3df5ee85	0.120083846
66	0xbe91fb8f	-0.28512236
67	0x3f7cec46	0.98798025
68	0x3f527652	0.8221179
69	0xbb6aad48	-0.003580885
70	0x3f39517f	0.7238998
71	0xbf357640	-0.7088356
72	0x3ed3d567	0.4137375
73	0xbf3f5eb3	-0.74753875
74	0x3dbe940c	0.093055815
75	0xbd9ea0ae	-0.07745491
76	0x3d94409a	0.07238884
77	0xbe9ce1b3	-0.30640945
78	0x3f81316e	1.009321
79	0x3f755573	0.9583351
80	0xbe0b9098	-0.13629377
81	0xbea974ca	-0.33096915
82	0x3f0fd143	0.56178683
83	0xbdfee15d	-0.124453284
84	0xbdcfbbaf	-0.1014322
85	0xbe594a1f	-0.21219681
86	0x3f4b289a	0.7935883
87	0xbef6ddf8	-0.48216224
88	0xbe81cda9	-0.2535222
89	0xbd897a52	-0.06712784
90	0xbf9244e6	-1.1427276
91	0xbe0d53aa	-0.13801447
92	0x3e880e2c	0.26573312
93	0x3e4f4ef1	0.20244958
94	0x3e650837	0.22366415
95	0xbebfdd29	-0.3747342
96	0x3ec811de	0.39076132
97	0x3f37e913	0.7184002
98	0x3d85a754	0.06526056
99	0x3dd13e49	0.10216958
100	0xbe77c8d7	-0.24197708
101	0x3e855a6b	0.26045546
102	0xbec5c562	-0.38627154
103	0x3dd47c58	0.10375279
104	0xbf07f256	-0.5310415
105	0xbeaa4d41	-0.33262065
106	0x3dbf3852	0.09336914
107	0xbd49026b	-0.04907457
108	0x3d32a79a	0.04361687
109	0xbebfafb6	-0.37438744
110	0xbe55519d	-0.20831914
111	0xbe9a62d5	-0.30153528
112	0xbe0b8b40	-0.13627338
113	0xbeef2388	-0.46706796
114	0xbf8c23f9	-1.0948478
115	0xbe20a7a5	-0.15688951
116	0xbceb99e5	-0.028759906
117	0x3f3d7591	0.7400752
118	0xbdf0d3cb	-0.11759146
119	0x3ed59d94	0.41721785
120	0x3f6817fc	0.906616
121	0x3dbaec2b	0.09127077
122	0xbf09d545	-0.5384105
123	0x3f3de7e4	0.7418196
124	0x3f22711c	0.6345384
125	0xbf536cc1	-0.8258782
126	0x3e3f39c0	0.18674374
127	0x3efcbd7d	0.49363318

2.bias f4 [4]
0	0x3e2a39d0	0.16623616
1	0x3e63d890	0.22250581
2	0xbdb478cd	-0.088121034
3	0xba9344d0	-0.0011235718
