Lunarlander/saved_MODELS/best_model_policy_gradient_center.pth (torch, 3103 bytes, 4 tensors)

0.weight f4 [32, 8]
00000000: a710 20bf 4520 53bf fa30 61bf 14de 37bf
00000010: d25a f53d fbe1 6d3f d351 7c3e e576 47bf
00000020: 2956 8ebe 2177 f23d 9e59 3ebf 0461 753e
00000030: 80ad 9a3f 8639 bb3f 824a d43d 8dd3 0d3f
00000040: 413f 693f 612f ae3e a041 333f be33 17bf
00000050: becc d2bf 7347 c0bf 01c1 8f3d 474f 58bf
00000060: 1a63 e3bb 3eaa 46bc cf00 643c 6ea3 acbd
00000070: 985c ce3d b27d 553d 449d 713c a2e1 923d
00000080: 7bce 01bf 40ad 95bf 65f9 91be 844f cf3f
00000090: deb6 bc3d d2a8 f03d b008 45bd f9cd 653f
000000a0: c8e9 053f 8158 a7bf bbd0 8f3f a95f 1140
000000b0: 661c 57bf 15fe 823e f7a9 b13e 8807 c23e
000000c0: ecdb 6b3e c264 9fbe 5e37 05bb f7cf 543e
000000d0: 2f1e 9e3c 1089 843b b3d3 4cbe f53a 4abe
000000e0: 32b1 dfbe b1af 8fbe e7ad 8c3d cd04 00bf
000000f0: c840 53bf 9e9d f6bd 3e63 97bd 7e3f 83be
00000100: 6228 0d3f d8fb a13e 1529 4c3f 461f 493e
00000110: 1dc5 cebf 6e23 94bf d9c4 563e 9cdb a5be
00000120: 2f67 f1be e667 67be 7ac8 20bf cf86 54bf
00000130: e2fb 903f 0389 d93f 45e3 5b3e 415e bb3e
00000140: d2ef bf3e f69c 4f3e ff03 7d3f 7b8f 36bf
00000150: e4d9 abbf 5a52 84bf e096 48be 696c 6cbd
00000160: 6aea 8f3f 014f 203f bfe8 553f d343 333f
00000170: 7d86 96bf f697 8ebf bbe2 1b3f 2ef4 d8be
00000180: eb6c 08bf d4ca 7dbe 9987 a9be 1d7d 87bf
00000190: 2918 8b3f c91c d13f 3b47 6e3e 350f e4be
000001a0: 6f47 8dbe d189 a53e 6182 62bf 4f66 533f
000001b0: d872 9d3f b06f af3e 7748 afbe 6403 5a3f
000001c0: ce4d 163f 6eb5 1e3c 68da 6f3f a039 4ebf
000001d0: c7a1 a2bf 94e0 a6bf a63e 54be a68a 17be
000001e0: a647 84be 7b3e c53e 0e79 3bbf 3c90 9f3f
000001f0: 5c00 7c3f d725 583c 1b8f 61be 8873 673f
00000200: 4f7c 20bf be2a 17bf 17f2 f8bc 45b6 b8bf
00000210: 9794 a03e 871c d73e f3ea 9e3e 3f34 82be
00000220: 87ad 32bf 59b7 b63e 170c 3dbf e13b 933f
00000230: 0c2b 363f 7ccb 2fbd 4c49 2a3e 0091 543f
00000240: 73cd 133f fb05 61be 67c7 673f 06a9 ca3f
00000250: 3a70 45bf 0b68 5cbe 5225 f23e de75 433e
00000260: a08c eb3e 32bc 963d 2da3 173f 5bf4 9bbf
00000270: de78 19bf 6b5b 84bf 4c19 173e fe7c e4be
00000280: 0a21 d5bc b492 c0bd 3960 a0bd 070a e33d
00000290: abb2 4abe f879 fabd 7886 70bd 784e a33d
000002a0: 57b7 403f da75 0d3f 9408 023f 1081 4cbd
000002b0: a67e a8bf 6583 92bf b0ae d13e a538 863e
000002c0: 11a6 21bc 7f77 41bf d1eb 94be c726 273f
000002d0: da65 88be 16eb a13d dad9 8ebe b9e7 fbbd
000002e0: 4ea1 f4be fbe0 89bf 4d8c 9dbe dfb1 ff3f
000002f0: b341 2d3f bb44 04be d0fb 9f3d c95c 2d3f
00000300: 6e48 ebbe 4a35 e2bc 8ef6 33bf bbaa 36be
00000310: 0620 953f 95cb e63f 991d 573d a8b8 123f
00000320: 2a6e fabe 970c c2be edcc d8be 9ea9 8abf
00000330: be2b 363f 2c28 993f 95a0 b63d 08c5 8d3e
00000340: 22c5 e0be fa7f dbbe d0dc e0bd 7997 fc3e
00000350: 7c75 023f 75bf b93e e8e9 17be d508 843e
00000360: 963f 8f3d 3464 36bd 3aab 4c3e 9fa4 a23e
00000370: fb4d 09bd fcf5 543e 39e7 b1be f19a 49bc
00000380: 3b2e 33bf 0298 193f cb1b 5abf 96b3 893f
00000390: 3904 af3f 2151 483e dcd2 863e 70be 7a3f
000003a0: 695e 32bf 219a 95be 2ef1 3dbf d0d8 b1be
000003b0: 8746 d13f 029e fa3f 4db5 d0bd 5ad2 a0bd
000003c0: 4e51 e73e 56ca 80bd aa8c 973e fcfd a4bf
000003d0: 841e 64bf c6b5 d3bd f26f 29bd 85b0 b2be
000003e0: 8b3a 263f 2a00 4d3e 1033 813f c06d 75bf
000003f0: 5497 90bf ed05 78bf 1ada c73e 19b6 c6be
-0.6252541 -0.82471114 -0.8796536 -0.7182324 0.11980213 0.92922944 0.24640588 -0.77915794
-0.2780011 0.11839128 -0.74355495 0.2396279 1.2084198 1.462693 0.10365774 0.55400926
0.9111214 0.34020522 0.7002201 -0.5906333 -1.6468732 -1.5021805 0.070192344 -0.8449597
-0.006939304 -0.01212555 0.013916208 -0.08429609 0.100762546 0.052121826 0.014746968 0.07171942
-0.5070569 -1.1693497 -0.28510585 1.6196141 0.09214567 0.1175095 -0.04810399 0.89767414
0.52309847 -1.3073884 1.1235574 2.2714636 -0.8402771 0.25584474 0.34699985 0.3789637
0.23033112 -0.3113156 -0.002032719 0.20782457 0.019301502 0.0040446594 -0.20002632 -0.19749053
-0.43689877 -0.2806373 0.06869107 -0.50007325 -0.82520723 -0.12041782 -0.07391976 -0.25634378
0.55139744 0.31637454 0.79750186 0.19640836 -1.6153904 -1.1573312 0.20973529 -0.3239411
-0.47149035 -0.22598228 -0.628059 -0.830182 1.1326869 1.6994938 0.21473415 0.36595348
0.37487656 0.2027472 0.9883422 -0.71312684 -1.342587 -1.0337632 -0.19588804 -0.057720575
1.1243412 0.6262055 0.8355827 0.70025367 -1.1759793 -1.1140125 0.6089284 -0.42373794
-0.53291196 -0.24784404 -0.33111265 -1.0585057 1.0866748 1.633691 0.2326936 -0.44542852
-0.27593562 0.32331708 -0.8848019 0.82577986 1.2300673 0.34264898 -0.34234974 0.85161424
0.5871247 0.009686811 0.93692636 -0.8055668 -1.270562 -1.3037286 -0.20727023 -0.14798984
-0.25835913 0.3852423 -0.7323159 1.2465892 0.9843805 0.0131926155 -0.22027247 0.9041066
-0.6268968 -0.59049594 -0.030388875 -1.4430624 0.31363365 0.42013952 0.31038627 -0.25430486
-0.6979603 0.35686758 -0.7384657 1.1502649 0.71159434 -0.042918667 0.16629523 0.8303375
0.57735366 -0.21974938 0.9053864 1.5832832 -0.7712437 -0.21524064 0.47294098 0.19087932
0.46005726 0.07360114 0.5923336 -1.2183946 -0.59950054 -1.0340399 0.14755744 -0.4462661
-0.02601673 -0.094029814 -0.07830853 0.11085897 -0.19794719 -0.12230295 -0.05872199 0.07973951
0.75279754 0.5525795 0.5079434 -0.04992777 -1.316365 -1.1446348 0.40953588 0.2621509
-0.0098662535 -0.7557296 -0.29086164 0.65293545 -0.26640207 0.07906167 -0.27900583 -0.12300057
-0.47779316 -1.0771784 -0.30771104 1.9976157 0.67678374 -0.12916844 0.07811701 0.67719704
-0.45953697 -0.0276133 -0.7029809 -0.17838566 1.1650398 1.8030878 0.05251846 0.57313013
-0.48912174 -0.3790023 -0.42343846 -1.0833013 0.71160495 1.1965384 0.08917347 0.27689385
-0.439004 -0.42871076 -0.10979617 0.49334314 0.50960517 0.36278883 -0.14835322 0.25787988
0.0699455 -0.044529155 0.19987193 0.3176622 -0.033521634 0.2079696 -0.3474672 -0.012305007
-0.6999242 0.5999757 -0.8519866 1.075793 1.3673164 0.19562198 0.26332748 0.97946835
-0.6967531 -0.29219154 -0.74196136 -0.34735727 1.6349648 1.957947 -0.101908304 -0.078526214
0.45179218 -0.062885925 0.29599506 -1.289001 -0.89109063 -0.10337405 -0.041366525 -0.349003
0.6493308 0.20019594 1.0093708 -0.9587059 -1.1296182 -0.9688404 0.39033586 -0.38810804

0.bias f4 [32]
00000000: b929 813c 73ce 1e3e 3514 0e3f d0bf f9be
00000010: 0971 273e 6d58 78be 4fdc 13bf 5bf4 e6bd
00000020: d430 843e 4bec 2f3e 2d90 5b3e a222 933e
00000030: 14b7 dc3d c77a 9b3e 21ca 9d3e 057e b83e
00000040: 006a 6f3e fb6d 453e 6062 ce3e db7d 453e
00000050: e94c 1fbf 043d 09be 928c a4bd 767d aa3e
00000060: 17cc 5c3e 9777 623e 7d21 83be d2c9 e7be
00000070: 90c5 4f3e 97a6 e13e 1f37 d63e 0d58 343e
0.015766965 0.15508442 0.55499583 -0.48779154 0.16351713 -0.24252482 -0.5775804 -0.11277076
0.25818503 0.17179982 0.21441717 0.2873736 0.10777107 0.3036711 0.30818275 0.36033645
0.2338028 0.19280235 0.4030943 0.19286291 -0.6222673 -0.13402182 -0.08034624 0.33298844
0.21562229 0.22115932 -0.25611487 -0.45271164 0.20290208 0.4407241 0.4183893 0.17611714

2.weight f4 [4, 32]
00000000: a2fe 38bf 3eb8 4bbe eead 36bf feb0 013e
00000010: cc5a a1be ad12 bdbd 19a7 53be cae5 c2be
00000020: dfab 94be e911 cdbe 3200 23bf 8ed5 b0be
00000030: 79a6 20bf c998 a1be ae36 fdbe bfb4 a7be
00000040: 1377 44bf c87c a0be 867e b53c 08c0 69bf
00000050: d446 4f3d c386 11be f3b7 0b3c 16f5 b7be
00000060: 5718 ffbe 1041 16bf fb3c 2ebd f125 6b3e
00000070: c89a 24be 26d3 0fbf ee75 10bf 6059 15bf
00000080: 586d 62bf c2e0 77bf 0379 7b3f 88ca 10bd
00000090: 7d41 7fbd 8d6a b73e 65dd f73d 96f2 563e
000000a0: 3275 7b3f 4341 54bf 162a 353f 7c1b 613f
000000b0: c6dc 1cbf d5e8 3bbf 613b 283f c885 97be
000000c0: 52ef a1be b545 79be adae fa3e fc00 1b3f
000000d0: e16d d8bd 28af 113f 02ab 2e3e cbe1 e4bd
000000e0: 0f2c 82bf ee28 0cbf 230e 5e3e 2443 c03d
000000f0: 1a63 b2be dab0 75bf bc53 aa3e 3e9e 2b3f
00000100: 9294 813f d8a6 c03e dff9 6abd 3d82 1a3e
00000110: ce5d 1ebf 4e00 9ebf d9b0 46be d15c 953d
00000120: 89e7 b1be 22a9 823f ae16 7f3d 9849 5fbf
00000130: 14c7 843f 7404 21bf ba40 233e 66be 47bf
00000140: 5f25 6f3f d6bd 00bf 90c0 74bf 83b6 d93e
00000150: 76a7 a93e 4c57 28bf 2915 a7be 8c16 18bf
00000160: fb88 183f 4658 753f a091 04bf 2f03 b53d
00000170: 6e11 24bf 8e8b 343f 86d0 ab3e fbb4 063e
00000180: 53dc 38be d56d 493f e069 5abf 5fc5 74bd
00000190: 5cae 273f b3fa c33e 11f3 c33d 6314 e2be
000001a0: 50a6 8fbe 33f6 ae3e 9d36 06bf 33ad c1be
000001b0: 263a 84bd 9d80 9d3f a9c1 90be e699 8a3f
000001c0: 13df d5be 532c 1f3f 15bc 803e 137f 22bf
000001d0: b949 313d e85d 32be 7a08 623d 47e1 4c3f
000001e0: 3d7b 293f d38c 053d a43e ad3e 67b0 0d3d
000001f0: d433 903f 6e6f ab3e e4f0 75be abd9 17bf
-0.7226354 -0.19894502 -0.71359146 0.12665173 -0.31514585 -0.09232078 -0.20669211 -0.3806594
-0.29037377 -0.40052727 -0.63672173 -0.3453793 -0.6275402 -0.31561878 -0.4945578 -0.32755086
-0.7674419 -0.313452 0.022155058 -0.9130864 0.050604656 -0.14211564 0.008527744 -0.35929173
-0.49823257 -0.5869303 -0.042538624 0.22963692 -0.1607467 -0.5618156 -0.56429946 -0.583395
-0.88448095 -0.9682733 0.98231524 -0.0353494 -0.062318314 0.3582348 0.121027745 0.20990977
0.982257 -0.8291208 0.70767343 0.8793256 -0.61274374 -0.7340215 0.65715605 -0.29594254
-0.316279 -0.24342997 0.48961392 0.6054838 -0.10567833 0.5690789 0.17057422 -0.11175879
-1.0169696 -0.54749954 0.2168508 0.09387806 -0.34841233 -0.9597298 0.3326701 0.67038333
1.0123465 0.37627292 -0.057367202 0.15088744 -0.61861885 -1.2343843 -0.194034 0.07293094
-0.3474696 1.0207865 0.06227749 -0.8722167 1.0373254 -0.6289742 0.1594266 -0.780249
0.934164 -0.50289667 -0.9560633 0.42522058 0.33135575 -0.65758204 -0.3263333 -0.59409404
0.59584016 0.9583782 -0.51784706 0.08838498 -0.64089096 0.70525444 0.33557528 0.13154976
-0.18052797 0.78683215 -0.853178 -0.05975854 0.65500426 0.38277206 0.095678456 -0.4415618
-0.28056574 0.3417221 -0.52427083 -0.37827453 -0.064564034 1.2304875 -0.2827275 1.0828216
-0.41771755 0.6217701 0.25143495 -0.6347515 0.043283198 -0.17418635 0.055183865 0.80031246
0.6620367 0.032605004 0.33836854 0.03459206 1.1265817 0.33483452 -0.24017674 -0.5931651

2.bias f4 [4]
00000000: a2e7 20bf acf3 3b3d e553 0dbd 9f2f ec3d
-0.62853444 0.04588668 -0.034503836 0.115325205
