Lunarlander/saved_MODELS/best_model_reinforce.pth (torch, 3103 bytes, 4 tensors)

0.weight f4 [32, 8]
0	0xbf1b8034	-0.607425
1	0x3e4b69e0	0.19864607
2	0xbf5047b6	-0.8135942
3	0xbee701c6	-0.4511854
4	0x3f92dc2c	1.1473441
5	0x3f703db8	0.93844175
6	0xbf11abe0	-0.56902885
7	0x3f238474	0.6387398
8	0x3f106588	0.56404924
9	0x3ebe94de	0.37222952
10	0x3f0b57e1	0.5443097
11	0xbe8da5e7	-0.27665636
12	0xbf8a87f8	-1.0822744
13	0xbf9ace87	-1.2094277
14	0xbf811b86	-1.0086524
15	0xbeda6370	-0.4265399
16	0x3ed76b7b	0.4207419
17	0x3e9ff30a	0.31240112
18	0x3f2d4adb	0.67692345
19	0x3d064d33	0.032788467
20	0xbf397998	-0.7245116
21	0xbf63e6b0	-0.89023876
22	0xbf136328	-0.57573175
23	0xbf25e118	-0.6479659
24	0x3dcd2584	0.10016921
25	0xbe61526e	-0.220041
26	0xbe25ea9e	-0.1620278
27	0xbdaf3f35	-0.08556978
28	0xbe062fe7	-0.13104211
29	0x3e40e81f	0.18838547
30	0xbded6335	-0.11591188
31	0xbeb149ac	-0.3462652
32	0xbe728ffb	-0.23687737
33	0xbdc8f254	-0.098118454
34	0xbed7fe4d	-0.42186204
35	0xbec62495	-0.38699785
36	0xbf0b5ebd	-0.54441434
37	0xbcdab23a	-0.026696313
38	0xbea22ef8	-0.3167646
39	0x3e0229f5	0.12711318
40	0x3dcfb5ac	0.10142073
41	0xbe12cc09	-0.14335646
42	0xbdb8b97b	-0.090197526
43	0x3eaa1f65	0.33227077
44	0x3e129860	0.14315939
45	0x3d564a11	0.05231673
46	0xbe074da8	-0.13213217
47	0xbebd8c43	-0.37021074
48	0x3e9fcf48	0.3121283
49	0xbdcd0862	-0.100113645
50	0x3ed31cd0	0.4123292
51	0xbfd4583f	-1.658943
52	0xbf416a9d	-0.75553304
53	0xbd51291e	-0.051064603
54	0xbdbb5ff4	-0.09149161
55	0xbe0e7cfe	-0.13914868
56	0x3ed6df27	0.41967127
57	0x3e91a4d4	0.28446066
58	0x3f85b2bd	1.0445172
59	0x3ecf4555	0.40482584
60	0xbf845850	-1.0339451
61	0xbf79a67d	-0.97519666
62	0xbee0748f	-0.43838927
63	0xbec8f359	-0.3924816
64	0xbf79394f	-0.9735307
65	0x3d51cba6	0.051219605
66	0xbdfd1749	-0.12357957
67	0xbf4ae7a6	-0.7925972
68	0x3f6ffb2d	0.9374264
69	0x3f9876ac	1.1911216
70	0xbe74fd63	-0.23924784
71	0x3f1a377a	0.602409
72	0x3e691eed	0.22765703
73	0xbed2a332	-0.41140133
74	0xbe47ff91	-0.19531085
75	0x3e2271b6	0.1586369
76	0x3d8c8939	0.06862111
77	0xbd87d471	-0.06632317
78	0x3ae23173	0.0017257169
79	0xbdcb1a28	-0.09917098
80	0x3ea25ef0	0.31713057
81	0xbbf400bd	-0.007446377
82	0x3f6e39c1	0.93056875
83	0xbe51f4ee	-0.2050359
84	0xbfa9c661	-1.3263665
85	0xbf275b39	-0.6537357
86	0xbeb78a64	-0.3584777
87	0xbe04f14f	-0.12982677
88	0x3e6eddf5	0.23326857
89	0x3d5f8ef2	0.054579683
90	0x3f295973	0.66152114
91	0x3edf4f19	0.43615034
92	0xbf1d91ea	-0.6155077
93	0xbf1dfc84	-0.61713433
94	0xbef2fe9a	-0.4745987
95	0xbf5dca41	-0.8663674
96	0xbf21b2e4	-0.6316359
97	0xbecc11c6	-0.3985731
98	0xbf1aaa7b	-0.6041638
99	0x3ed0e511	0.40799764
100	0x3f22e461	0.6362973
101	0xbe3f7051	-0.18695189
102	0x3f2298ad	0.63514215
103	0x3efb45a3	0.49076566
104	0x3d301ca6	0.04299607
105	0x3e362a72	0.17789629
106	0x3f067fda	0.52538836
107	0x3f6d8313	0.9277813
108	0xbecaeead	-0.3963522
109	0xbcc953bf	-0.024576066
110	0x3ea1d7b4	0.3160988
111	0x3df4c7eb	0.11952194
112	0xbed2df43	-0.4118596
113	0x3e8b7187	0.27235052
114	0xbf41dd5a	-0.7572838
115	0xbf44e0ec	-0.76905704
116	0x3f888f32	1.06687
117	0x3f648105	0.8925937
118	0xbf05006a	-0.51953757
119	0xbe30f6a5	-0.17281587
120	0xbe75d7da	-0.24008122
121	0xbf5fb057	-0.8737845
122	0x3f069967	0.52577823
123	0x3e92f8b8	0.28705382
124	0x3e997b04	0.29976666
125	0x3f12bfe3	0.57324046
126	0x3e85bc37	0.2612016
127	0x3e15ca17	0.14627872
128	0x3f2cc83d	0.6749304
129	0x3e7a6faf	0.24456666
130	0x3f4c0c82	0.79706585
131	0x3f006426	0.50152814
132	0xbf70772d	-0.9393185
133	0xbf08c5c1	-0.5342675
134	0xbee4a393	-0.44656047
135	0xbf552dd6	-0.83273065
136	0xbeb1d92e	-0.34736007
137	0x3e93f759	0.2889965
138	0xbf5327d7	-0.82482666
139	0xbe4797ce	-0.19491503
140	0x3f92e7b5	1.1476961
141	0x3f94caa9	1.1624347
142	0xbe580d22	-0.2109876
143	0x3e1d8569	0.15382923
144	0x3f3ecd93	0.7453243
145	0x3e8e819e	0.27833265
146	0x3f38ad26	0.72139204
147	0x3e6aea93	0.22941045
148	0xbf68d310	-0.90947056
149	0xbf36b919	-0.71376187
150	0xbf11f8f5	-0.57020503
151	0xbebe27e5	-0.37139812
152	0xbf394b03	-0.72380084
153	0xbd10fe68	-0.03539887
154	0xbf24f8e4	-0.64442277
155	0x3ef9ed94	0.4881407
156	0x3f630a18	0.88687277
157	0x3ee6e89d	0.45099345
158	0x3ddcf43d	0.10788772
159	0x3f3c0e07	0.73458904
160	0xbecf0824	-0.40435898
161	0x3e20e8b8	0.15713775
162	0xbe832252	-0.25612122
163	0x3f886c4a	1.0658047
164	0x3f1600d3	0.5859501
165	0x3e62688a	0.22110191
166	0xbf248953	-0.6427204
167	0xbe8e027f	-0.2773628
168	0xbf610071	-0.878913
169	0x3d0592f2	0.03261084
170	0xbf5e422f	-0.8681974
171	0xbd55480a	-0.052070655
172	0x3f757e43	0.95895785
173	0x3f47f339	0.78105503
174	0xbf38833c	-0.7207525
175	0xbf1a242c	-0.60211444
176	0xbeb008c0	-0.34381676
177	0xbdbcf95b	-0.09227248
178	0xbeffe6fc	-0.49980915
179	0xbf76d75d	-0.9642237
180	0x3f316982	0.6930162
181	0x3ddd3ffd	0.108032204
182	0xbe05fc4e	-0.13084528
183	0x3e342a77	0.17594324
184	0xbe19da7a	-0.15024748
185	0x3e0ac526	0.13551769
186	0xbee212a2	-0.4415484
187	0x3f4d5846	0.8021282
188	0x3ebb34d5	0.36563745
189	0x3f45b3bd	0.77227384
190	0xbe8c4773	-0.2739826
191	0xbeab1765	-0.33416286
192	0x3eaa7b5d	0.33297244
193	0xbee3cd52	-0.44492584
194	0x3ec56acf	0.3855805
195	0xbfc5889f	-1.5432318
196	0x3e6131e0	0.21991682
197	0x3e2a5ff8	0.16638172
198	0xbd526516	-0.051365934
199	0x3d9ea70b	0.07746705
200	0xbf934c9a	-1.1507752
201	0xbcbbcacc	-0.02292385
202	0xbfb1c6bb	-1.3888773
203	0xbc50f309	-0.012753257
204	0x3f28f130	0.6599302
205	0x3f0aa8e4	0.54163957
206	0xbecd0b88	-0.4004786
207	0xbe065525	-0.13118418
208	0xbdc6ec8c	-0.097130865
209	0x3d824fd3	0.063628815
210	0x3e37595b	0.1790518
211	0x3e80027a	0.2500189
212	0x3e4de4d3	0.20106821
213	0xbe13844e	-0.14405939
214	0xbc6c0d18	-0.014407419
215	0x3de9d586	0.114176795
216	0xbf7b15d4	-0.9808018
217	0x3ea84064	0.32861626
218	0xbf7d6ec0	-0.98997116
219	0xbe509e86	-0.20372972
220	0x3fb5d57f	1.4205779
221	0x3fabfc1a	1.343631
222	0xbf82eef3	-1.0229172
223	0xbd4d816a	-0.050172247
224	0xbee62b4b	-0.44954905
225	0x3e3814af	0.1797664
226	0xbf6820de	-0.9067515
227	0x3f4a499d	0.79018575
228	0x3f42ffe6	0.7617172
229	0x3f675d78	0.90376997
230	0x3e8c285e	0.27374548
231	0x3f52e8bb	0.8238637
232	0x3c664c23	0.014056238
233	0x3eb7aaf2	0.35872608
234	0x3f47a767	0.7798981
235	0x3e73202c	0.23742741
236	0xbf2da77a	-0.67833674
237	0xbf29205c	-0.66065
238	0x3eae605f	0.340579
239	0xbeaf80ed	-0.3427805
240	0x3dd262d2	0.10272755
241	0x3e07ddc7	0.13268195
242	0xbeb624b5	-0.3557488
243	0x3d185719	0.037192438
244	0x3e8431e7	0.25819322
245	0x3e11d6d0	0.142421
246	0x3dbd59fc	0.09245679
247	0xbe70f806	-0.23532113
248	0x3f43d818	0.7650161
249	0x3a8b1ae0	0.0010612868
250	0x3f745745	0.9544566
251	0xbf61bb37	-0.8817629
252	0xbf892939	-1.0715705
253	0xbfa758c2	-1.3073962
254	0xbf000cc9	-0.5001951
255	0xbe9b41ee	-0.30323738

0.bias f4 [32]
0	0x3a632620	0.0008665044
1	0x3c238968	0.009981491
2	0xbd8a47e1	-0.06751991
3	0xbf00c629	-0.5030237
4	0xbd627bf8	-0.055294007
5	0xbe8de25e	-0.27711767
6	0xbd52f6cb	-0.05150489
7	0x3e613f79	0.21996869
8	0xbe9efaac	-0.31050622
9	0xbe791217	-0.24323307
10	0x3e96331f	0.29335877
11	0x3e85f17a	0.26160794
12	0x3e95fc10	0.2929387
13	0x3eb8f6d2	0.3612581
14	0xbe3a73af	-0.18208192
15	0xbf02f22f	-0.5115079
16	0x3e698c26	0.22807369
17	0xbe1125b7	-0.14174543
18	0x3db1f7d6	0.08689849
19	0x3ed1bfff	0.40966794
20	0x3efcf3f8	0.49404883
21	0x3e335cfb	0.17515938
22	0x3d1075d4	0.03526862
23	0x3ea9d7fe	0.331726
24	0xbd6f75f4	-0.0584621
25	0x3e138b2e	0.14408562
26	0xbeff29d9	-0.49836615
27	0xbe0be384	-0.13661009
28	0x3ed86b63	0.4226943
29	0xbe252e22	-0.1613088
30	0xbed141c1	-0.4087048
31	0x3e831aa6	0.2560627

2.weight f4 [4, 32]
0	0xbeedc8dd	-0.4644231
1	0xbec8469f	-0.3911638
2	0xbd8e9f5e	-0.06963991
3	0x3d5cc553	0.05389912
4	0xbe193ce1	-0.1496463
5	0x3e01c6f7	0.12673555
6	0xbf6a0878	-0.9141917
7	0xbd423ef7	-0.04742333
8	0xbf0fa1c6	-0.5610622
9	0x3e8a4c84	0.27011502
10	0xbe947367	-0.28994295
11	0x3aacd618	0.0013186364
12	0x3e2b5ecc	0.16735381
13	0x3ea115a0	0.3146181
14	0xbf1d7611	-0.6150828
15	0xbdf3d379	-0.119055696
16	0x3dce386a	0.10069354
17	0xbec86c9b	-0.3914536
18	0xbe144450	-0.14479184
19	0xbe773c3c	-0.24144071
20	0x3e8f8b95	0.2803618
21	0xbec2a908	-0.38019586
22	0xbec7540c	-0.3893131
23	0x3dcc88ca	0.09987028
24	0xbf6e79da	-0.9315468
25	0xbe9383ee	-0.28811592
26	0x3d79bad6	0.060969196
27	0xbda4cf05	-0.08047298
28	0xbdfd7ab8	-0.12376922
29	0x3e8f48e8	0.2798531
30	0x3e1d440f	0.15357994
31	0xbf319e74	-0.69382405
32	0xbf114577	-0.5674662
33	0x3efee8b9	0.49786928
34	0x3f0df1d2	0.55447114
35	0x3c8c4153	0.017120993
36	0x3d389e38	0.045072764
37	0xbd2b9d22	-0.0418979
38	0x3b277470	0.002555158
39	0x3f2d2c4e	0.6764573
40	0xbf536563	-0.8257658
41	0x3d85d553	0.06534829
42	0x3edab9d0	0.4271989
43	0x3e984b70	0.29745054
44	0xbf30c32f	-0.69047827
45	0x3e1f730c	0.1557123
46	0xbf1a6aa3	-0.60318965
47	0x3f15f41f	0.58575624
48	0x3f5ccea3	0.862528
49	0xbf1b32c4	-0.6062434
50	0x3f010c9b	0.5040986
51	0xbeacfa18	-0.33784556
52	0x3e905e5c	0.2819699
53	0xbf21838e	-0.6309136
54	0xbebcfebc	-0.36913097
55	0x3c9a15f8	0.018809304
56	0xbed17712	-0.40911156
57	0xbf3582ce	-0.7090272
58	0xbc94a4ef	-0.018145053
59	0xbf4f40b6	-0.80958116
60	0xbe919f70	-0.28441954
61	0x3eaa166f	0.3322024
62	0xbe0d5144	-0.13800532
63	0x3ef03fb9	0.46923617
64	0x3e81adad	0.25327817
65	0x3e4e6f62	0.20159677
66	0xbd57ea62	-0.05271376
67	0xbd2c5845	-0.042076368
68	0x3e4b9a8b	0.19883172
69	0x3e2097d5	0.1568292
70	0x3f5c1b5f	0.85979265
71	0xbed1dc0a	-0.4098819
72	0x3f1b9327	0.6077141
73	0x3cef0ec6	0.02918185
74	0x3d08f708	0.033438712
75	0xbe6425f7	-0.22280107
76	0xbe1423ff	-0.14466856
77	0xbf9d945c	-1.2310901
78	0x3e8bab68	0.2727921
79	0xbe5e31f6	-0.21698746
80	0xbeeb686a	-0.459781
81	0xbd28fcc7	-0.041256692
82	0xbe00e5e6	-0.125877
83	0xbebae73c	-0.36504543
84	0xbf9f0937	-1.2424687
85	0x3c9ee293	0.019395148
86	0x3ef09f2a	0.46996433
87	0xbf1a4645	-0.6026347
88	0x3f8cddb7	1.1005162
89	0x3e17d5cd	0.14827652
90	0xbd84e1b3	-0.06488361
91	0x3e26f7bc	0.1630544
92	0xbf24f54c	-0.64436793
93	0xbdad3ebb	-0.084592305
94	0xbe1d1e87	-0.15343677
95	0x3ef47bf3	0.47750816
96	0x3f3b20f3	0.7309715
97	0xbece04d0	-0.40238047
98	0xbf4110d8	-0.75416327
99	0x3c68050c	0.0141613595
100	0xbd7cc244	-0.061708704
101	0xbdd3d51d	-0.103433825
102	0xbf22492f	-0.6339292
103	0xbf4b54f0	-0.7942648
104	0x3ed77257	0.42079422
105	0x3c6c3144	0.014416043
106	0xbf3d8d9d	-0.7404421
107	0xbe9e3ba8	-0.3090489
108	0x3f18fd97	0.5976195
109	0xbcc9ffcc	-0.024658106
110	0x3f1594bf	0.58430094
111	0xbec5f8db	-0.38666424
112	0xbf1d0f33	-0.6135132
113	0x3f2147d9	0.63000256
114	0xbf2a9f27	-0.666491
115	0x3f436b89	0.7633596
116	0x3f53e8f4	0.82777333
117	0x3f6aa05b	0.91650933
118	0x3e9902d2	0.29884964
119	0x3f0501d3	0.5195591
120	0xbe9eff53	-0.31054172
121	0x3efeffd5	0.4980456
122	0xbd005273	-0.03132863
123	0x3f536c16	0.825868
124	0x3f4b973d	0.79527646
125	0xbeeeca69	-0.46638802
126	0x3e60c5dc	0.21950477
127	0xbf77b96f	-0.96767324

2.bias f4 [4]
0	0xbe70be33	-0.23510055
1	0x3db39603	0.08768847
2	0x3e6faedd	0.23406549
3	0x3e60505f	0.21905659
